models/lfblips/params.ckpt (torch, 269763 bytes, 36 tensors)

encoder.net.0.weight f4 [64, 128]
000000 b0 6a b8 bb 0c d0 52 bd 35 cb 64 3c 18 11 19 3c
       -0.0056279525 -0.05146794 0.013964464 0.009342454
000010 0c 7b 11 bd 00 6c 37 3d c7 45 5e 3b 3b 32 81 3c
       -0.035517737 0.04478073 0.0033916102 0.015771022
000020 46 19 3b 3d fe b9 49 3d 80 9b ac bc 16 22 79 bc
       0.0456784 0.04924964 -0.021070242 -0.015205881
000030 75 4d d2 3d c0 64 4e 3d 66 75 c1 3d 42 33 86 3d
       0.1026868 0.05038905 0.0944622 0.065527454
000040 67 55 de 3d d3 a8 ac 3d 23 cc c5 bb 09 41 c8 3d
       0.10856133 0.08430638 -0.006036298 0.097780295
000050 dd fc d7 bc f6 5f de 3d 11 08 56 bd c2 a3 3c ba
       -0.026365692 0.10858147 -0.052253786 -0.00071960327
000060 aa 4e 07 3d ae 28 2d bd bf 9e 64 3c 5a 8e 32 3d
       0.033034004 -0.042275123 0.013953864 0.04359279
000070 13 9e 0c 3c 76 71 be 3d cf a9 82 3d 7b 1c 69 bd
       0.00858261 0.09298985 0.06380045 -0.056911927
000080 4d 7e c7 3d 6e 36 8e bc ae eb 84 3d 8b b6 56 bd
       0.09740887 -0.017359938 0.06490265 -0.05242018
000090 54 35 9d 3d ff 5f fd 3d df ca bb 3d 50 d3 92 3d
       0.07676187 0.123718254 0.09169554 0.07169211
0000a0 db a5 34 3d ee 8f 1d bd f6 3e 81 3d 64 55 29 bd
       0.044103485 -0.03846734 0.06310837 -0.0413412
0000b0 73 f9 6a 3d 7b 62 f7 bb 1a b9 fc ba 8e b9 33 bd
       0.0573668 -0.0075495816 -0.0019281239 -0.04387813
0000c0 4d b9 09 3e 14 78 a2 3d 48 09 d1 3d 70 10 6f 3d
       0.13449593 0.07933059 0.102068484 0.058365285
0000d0 96 be d9 3d 0b a1 f6 3d f0 da 13 3b b9 b8 bb 3b
       0.106320545 0.12042435 0.0022560917 0.0057288078
0000e0 b3 88 7e 3d 04 b8 71 bc 51 ff 46 3d 27 54 51 bd
       0.062142085 -0.014753345 0.048583332 -0.051105645
0000f0 79 da 02 3c 0e 4f 6e bd 02 22 d7 3b ad 3c ba 3c
       0.007986658 -0.05818086 0.0065653333 0.02273401
000100 ee f4 16 3d 3d 39 d7 3d 6d e9 cc 3d 7e 30 f0 3c
       0.036854677 0.10508964 0.1000546 0.029319998
000110 c0 d8 a8 bc 94 bb 24 3d 51 1c 10 3d 50 e8 00 bb
       -0.020611167 0.04021795 0.035183255 -0.001966972
000120 91 66 12 3d 09 e8 95 bd e2 dc 1a 3c e9 29 85 bb
       0.035742346 -0.07319648 0.009452077 -0.004063834
000130 e0 88 49 bb 67 25 a1 3d e2 03 9f 3d 64 d3 99 3d
       -0.003075175 0.07868462 0.077644125 0.07511023
000140 48 52 3f 3d 74 1d 94 3d ee 90 4b bc 6d 6f 9b 3d
       0.04670933 0.0723218 -0.012424691 0.07589612
000150 fb bc 45 bd b8 e1 89 3d 4e 3a 00 bd fb 48 58 3c
       -0.04827593 0.067325056 -0.031305604 0.013200994
000160 9b 08 89 bd 7e dd ac 3c 1b 74 02 bd 99 a3 ac bc
       -0.066910945 0.02110171 -0.031849008 -0.021074103
000170 32 74 72 bd 2c a5 99 3d 24 c8 12 3d c7 73 e9 3d
       -0.059192844 0.07502207 0.0358354 0.11399036
000180 00 ec 31 3d 3a e0 c1 3d 98 a6 94 3c 78 a8 37 bd
       0.043437958 0.09466596 0.018145844 -0.0448384
000190 07 de c7 3c dc bd fa bc 29 98 04 3d 08 3c d7 bc
       0.024397863 -0.03060811 0.032371674 -0.026273742
0001a0 ee 39 c8 bb 99 bc 61 3c ff c1 b0 3d 3d 59 2b bc
       -0.0061104214 0.013777875 0.08630752 -0.010458288
0001b0 c9 9d 19 3d d3 0e 7b 3c 7a d4 11 3b 21 cb f5 3b
       0.03750399 0.015323359 0.002225189 0.0075010215
0001c0 6a 06 1d bd ba be d8 3b 0f b8 1c bd ca b1 ef 3d
       -0.038336195 0.0066145333 -0.03826147 0.117038324
0001d0 a9 3c 72 bd 5e aa e7 3d 59 82 67 bd 85 13 c8 3c
       -0.05913988 0.11311792 -0.056520794 0.02442337
0001e0 d8 58 18 bc 81 87 9d bd 9b bc cd 3d c3 2c cf 3d
       -0.009298526 -0.07691861 0.10045739 0.101159595
0001f0 8e 4f ae 3c 55 76 50 3d c9 8b c7 3d 62 3a 3f 3c
       0.021278169 0.0508941 0.09743459 0.011671634
000200 ba 4a b6 bd d3 33 d5 3c 86 05 de bb d4 ac b6 3a
       -0.08900972 0.026025688 -0.006775561 0.0013937005
000210 cc aa 6c bd a2 cf 47 3d 38 b4 6d 3d f0 67 41 bb
       -0.057780072 0.048782 0.058033198 -0.0029511414
000220 63 c1 26 3c fd 0a 57 3c a9 68 89 bd b9 a4 30 bd
       0.010177943 0.013125178 -0.067094155 -0.04312584
000230 cf f8 7c bd 39 52 ad bc 2b 46 91 bd dc f3 be bc
       -0.06176072 -0.02115737 -0.070934616 -0.02330964
000240 aa 22 56 3d 08 02 65 3d dd ee c8 bd 90 02 06 3d
       0.052279152 0.05591014 -0.098111846 0.032717288
000250 03 7d 73 3c e5 5e a1 bd 60 05 87 3c e0 ae c9 bc
       0.014861348 -0.07879428 0.016482055 -0.02461952
000260 1c 52 8b bd 3c 03 c4 ba 39 ba 23 bd e8 4a 36 3d
       -0.068027705 -0.0014954577 -0.039972518 0.04450503
000270 a3 94 0a 3d d1 ea c1 bd 51 d5 9c bd ea 73 59 3d
       0.033833157 -0.09468616 -0.076578744 0.05308906
000280 27 7c 80 bd 53 ca 84 3d ae 2b be 3c bb 60 45 bc
       -0.0627368 0.06483903 0.023214187 -0.012046988
000290 8e 0c 11 bd 5d 49 6f bc 1e 4a 09 3d 1c 1d 0a 3d
       -0.035412364 -0.0146048935 0.03351795 0.033719167
0002a0 c5 1a c1 bd 9d ae 31 3d c3 56 8d bd a4 5f 86 3b
       -0.09428934 0.043379415 -0.06901314 0.0041007567
0002b0 1f b4 62 3b 8a f4 cc 3c 4a a4 c8 3c a4 13 fb bc
       0.0034592224 0.025018949 0.024492402 -0.030649014
0002c0 88 76 cc 3c 5f 08 13 3d 79 a8 24 3d 34 87 d2 bb
       0.024958864 0.035896655 0.04019973 -0.006424809
0002d0 46 9a fe 3c af 04 be bc 00 c4 95 bc 16 94 85 bd
       0.031079423 -0.023195593 -0.018281937 -0.06522386
0002e0 a0 71 fa ba a5 80 ad 3b ae 1f 20 bd c4 a3 29 bd
       -0.0019107349 0.0052948766 -0.039092712 -0.041415945
0002f0 3c 4e 97 3d f4 37 78 3d a4 df 77 bd 15 ca 4b 3c
       0.07387969 0.060600236 -0.060516015 0.012438317
000300 80 29 bb bb 59 73 c7 ba 3e 0d c2 bc 77 0e 08 be
       -0.0057117343 -0.0015216871 -0.023687955 -0.13286768
000310 ad dd 4b bb 8a f0 41 bd 5a 93 89 3d 87 75 dd 3c
       -0.003110747 -0.047348537 0.06717558 0.02703358
000320 60 69 6f bb b7 d6 e6 bc e1 60 d0 bc cd df 8b 3d
       -0.0036531314 -0.028178556 -0.02543682 0.06829796
000330 41 4c 16 3d 3d 61 a1 bd c0 16 12 bd 82 2c 39 bc
       0.036693815 -0.07879875 -0.035666227 -0.011302115
000340 6d bc 6f bd 8b cd 16 3d d7 af fb bc 66 3e 3e bd
       -0.058529306 0.036817115 -0.030723495 -0.046446227
000350 2b 98 1e bc 8c 6d f8 3c a8 cb ca bd 96 f4 b7 bc
       -0.009679834 0.030325674 -0.099021256 -0.022455495
000360 e1 67 68 3c 7e 05 46 3c 85 e1 79 bd 24 44 bb 3b
       0.014184923 0.01208627 -0.061006088 0.00571491
000370 4a 18 25 bd 57 c9 7e bd 49 63 f0 3b d3 ac 98 bb
       -0.040306367 -0.06220373 0.0073360545 -0.004659274
000380 5a a6 72 3d b9 58 f9 bc a8 3d c5 bd bb f3 90 bd
       0.059240676 -0.030437814 -0.096309006 -0.07077738
000390 b9 49 45 3c 58 a6 1d 3d 98 72 82 3d 6b 40 ca bc
       0.012041503 0.038488716 0.06369513 -0.02468892
0003a0 20 8a 7c bd 02 25 52 bd 26 72 02 bd b9 c9 6c bc
       -0.061655164 -0.051304825 -0.03184714 -0.014452391
0003b0 94 b1 96 bc 00 a1 0f bd d0 48 1e 3d ec f8 2e 3d
       -0.018395223 -0.03506565 0.03864366 0.04271786
0003c0 8e d5 5b 3d 65 ce a4 bd b7 da b3 bd 5c ec 12 3c
       0.05367046 -0.08047179 -0.08781951 0.008967485
0003d0 d9 7c 7d bc b2 19 ec 3c 67 06 45 3d 00 d2 1d bd
       -0.0154716605 0.028820846 0.04810181 -0.03853035
0003e0 d6 15 03 3d a8 ef 25 bd ee a7 6b bc 16 8e 42 bd
       0.032003246 -0.040511757 -0.014383299 -0.047498785
0003f0 3e b1 67 3c 02 0c 2b bd 05 55 41 bd ef 0c 1a bd
       0.014141379 -0.0417595 -0.04720022 -0.03760999

encoder.net.0.bias f4 [64]
000000 9f 69 c7 3d cd db 73 bd ea 65 86 bc 73 31 38 3d
       0.097369425 -0.05953579 -0.016406018 0.044969033
000010 2f ef 04 3d e9 ce c6 3d ae 0a 43 3c f6 23 81 bc
       0.032454666 0.09707434 0.011904402 -0.015764218
000020 4d 5a d9 bd ad 97 b6 bc 01 7c 0c 3d a9 c9 7c 3d
       -0.10612927 -0.022289122 0.034297947 0.061715756
000030 f5 41 22 3c 61 45 50 3d 84 c3 12 3d 0b cc 52 3d
       0.009903421 0.050847415 0.03583099 0.05146412
000040 6e 09 8f 3d d3 d6 dc 3d 7d 97 cc bb ad 0d e8 3d
       0.069842204 0.10783162 -0.0062436447 0.113307334
000050 9b 15 04 3e ea d9 3c 3c de 7e fc bd af 63 d2 3d
       0.12898867 0.011526564 -0.123288855 0.102729194
000060 a6 53 34 3c 71 df 31 bb 37 b4 e1 3c ab 09 80 3d
       0.0110062715 -0.0027141238 0.027551753 0.06251844
000070 cf d9 00 3d 86 2c 20 bd 6b 6e 10 3b 29 01 3d bd
       0.03145772 -0.03910496 0.002203847 -0.046143685
000080 09 41 6c 3c 07 4e 2b bd da 7e 99 3d 8f 93 c0 3d
       0.014419802 -0.04182246 0.07494898 0.094031446
000090 1b 1c a5 bc 18 59 e1 3b 89 c0 9b bd f8 8a 03 3c
       -0.020155003 0.006877076 -0.076050825 0.008028738
0000a0 6c 80 a0 3d 0c 92 a1 3d 70 27 07 3d ec ca cf 3c
       0.078369945 0.07889184 0.032996595 0.025365315
0000b0 ab c2 96 3d a9 79 c2 3b 8b b9 b4 3a f4 a9 7a 3d
       0.07361349 0.005934913 0.0013788206 0.061197236
0000c0 09 f8 1f bd c4 4c 3b 3e d2 80 b8 bc be 00 5d 3d
       -0.039054904 0.18291003 -0.022522364 0.053955786
0000d0 30 e4 0a 3e c4 2e cb 3d be e8 b3 3c fa 50 f5 bc
       0.13563609 0.09921029 0.021961566 -0.02994584
0000e0 c2 ce 1d 3e a0 ba a8 3d 64 62 88 3d de 2a 98 3d
       0.15410903 0.08238721 0.066593915 0.07430051
0000f0 62 07 d0 3d 70 97 d0 3c fd de 10 3d f8 97 bf bc
       0.10157658 0.025462836 0.03536891 -0.023387894

encoder.net.2.weight f4 [32, 64]
000000 6f 72 68 bd c0 8b 80 3d 5a 5a dc 3d cb 27 97 3c
       -0.056749757 0.06276655 0.10759421 0.018451592
000010 91 01 e6 3d ea 05 c0 bd 78 e2 ac 3d d2 ca 96 bc
       0.112307675 -0.09376128 0.08441633 -0.01840726
000020 a0 e2 fb bd 6c bf 55 bd a4 3e 6d 3d 09 04 17 3d
       -0.12299085 -0.052184507 0.057921067 0.036869083
000030 c2 e4 c7 3d 2c 9d ba bd bf 21 91 3d 72 ab 06 3d
       0.09760429 -0.091120094 0.07086515 0.032878347
000040 9d 32 b7 3d 1d df 2d bc fc c4 b5 bc 40 91 71 bd
       0.089452006 -0.010612276 -0.022188656 -0.05897641
000050 3b d8 f4 bc 05 83 db 3d d4 eb 14 3d b4 0b cc bd
       -0.029888263 0.10718349 0.036357716 -0.0996317
000060 9e 7e e6 bd 48 12 7e 3d 75 82 ad 3d 7a 0a 64 bc
       -0.11254619 0.062029153 0.08472148 -0.013918513
000070 71 1c ba 3c 00 ef 6b 3d 72 d0 32 bd c6 cd 88 3d
       0.02271864 0.057600975 -0.04365582 0.06679873
000080 d6 51 59 bd ea bf 4b bd 1d 59 a1 3d 20 4f e7 bd
       -0.05305656 -0.04974357 0.07878325 -0.11294389
000090 a2 3e 00 be ad f8 e5 3c 0e e4 3d bd a9 93 a8 bd
       -0.12523893 0.02807268 -0.046360068 -0.08231289
0000a0 45 fd bc bc b8 30 98 3d 50 db c5 3c b2 07 26 bd
       -0.023069987 0.07431167 0.024152428 -0.040534683
0000b0 f3 44 e5 3d d1 6f ac 3d 1b 64 88 3d e2 d9 bf 3d
       0.11194792 0.08419765 0.066597186 0.0936773
0000c0 67 a7 e6 bd f8 84 87 3d f7 cf 0a bd 9e 95 d0 3c
       -0.11262398 0.06617159 -0.033889737 0.025461968
0000d0 40 09 ad bd 79 a3 fb bd b0 c9 9c 3c 2c 8b aa bd
       -0.0844903 -0.12287039 0.01913914 -0.08327326
0000e0 f9 61 06 be e6 42 cf bd 82 ce ab 3d 71 dc 00 3d
       -0.13123311 -0.10120182 0.083889976 0.03146023
0000f0 0d e5 97 bc 8d 73 5e 3c 8a 3f 93 bd f8 8d 01 be
       -0.018541837 0.013577354 -0.071898535 -0.12651813
000100 1f 8e ab bd f1 d9 96 3c 75 97 45 3d 12 05 04 bd
       -0.08376717 0.01841447 0.048240144 -0.032231398
000110 9b 75 3b 3d 28 0c 9c bd c0 11 26 3d 39 38 ab bd
       0.045766454 -0.07619506 0.04054427 -0.08360333
000120 28 e0 1a 3e c1 ab 91 bd 7d 0b eb bd a8 b8 9d bd
       0.15124571 -0.071128376 -0.114768006 -0.07701236
000130 d1 9c 7a bc 23 16 2e 3d dc a4 bc 3d dd e4 81 3d
       -0.015296177 0.04250158 0.09211132 0.0634248
000140 f0 86 8a 3b 73 0b 3c bc d1 00 7a 3d c1 7d 89 bd
       0.0042275116 -0.011477339 0.061035935 -0.06713439
000150 86 70 0b be c0 6f 95 bd 31 1e bf 3d 51 48 8e 3d
       -0.13617143 -0.07296705 0.093319304 0.06947387
000160 84 b7 73 bd 39 be 44 3d f6 a3 f0 3d 41 72 0b 3d
       -0.059501186 0.048032973 0.11750023 0.034044508
000170 8c 99 1f 3e 80 4e 1c bd 79 ec ae 3d e5 4e c3 3d
       0.15585917 -0.0381608 0.08541197 0.09536532
000180 78 ef 5e bc c6 09 6f 3d 4b 1f b3 3d 56 5d c2 bd
       -0.0136068985 0.05835893 0.08746203 -0.09490459
000190 6a d5 7d bd be 44 9f bd 22 a8 4e bd 4e fe 8c 3d
       -0.061971106 -0.077767834 -0.050453313 0.06884442
0001a0 83 b5 ef bd 90 dd 7f bd de da 32 bc c5 7a 05 3e
       -0.117045425 -0.062467158 -0.01091644 0.13035114
0001b0 68 c5 b3 bc c3 30 a7 3d 22 9f 8f bd 84 67 b0 bc
       -0.021944717 0.081635974 -0.07012774 -0.021533735
0001c0 39 12 ad bd ae d5 84 3d 8f c7 c9 3c 26 b1 36 3d
       -0.08450741 0.06486069 0.02463129 0.044602536
0001d0 e7 89 15 be b9 0e 18 bd 72 7c 43 3d ce 6c c3 bc
       -0.14603387 -0.037123416 0.047726102 -0.023855593
0001e0 d3 6f 65 3d c8 3e a1 bd a7 f1 bf 3d e4 c7 4a be
       0.056014847 -0.07873303 0.093722634 -0.19802815
0001f0 7c ec dd bd e3 49 ce bc 4b 2d 15 bb 85 40 98 3d
       -0.108361214 -0.025181716 -0.0022762592 0.07434181
000200 92 ff 7f 3d 32 4e 6f bd 21 5f dd bd 53 63 bb 3d
       0.06249959 -0.058424182 -0.1080916 0.09149804
000210 d9 5f 38 3e 42 fe 6d 3d 5d 9c 24 3d 69 7d a5 bd
       0.18005313 0.058103807 0.040188182 -0.08080561
000220 08 97 2f 3e 93 04 a5 3d 1f e1 b9 bd 2a 41 cb bd
       0.17147458 0.08057513 -0.090761416 -0.099245384
000230 d2 2d b6 3d b8 68 15 be fa 60 99 3c f5 a0 a7 bd
       0.08895458 -0.14590728 0.018723 -0.08184997
000240 c6 5e c9 3d 23 7c c6 bd 61 b2 28 3e 63 cf 76 3d
       0.0983253 -0.09691646 0.16474296 0.060256373
000250 e3 24 f3 bc 4b c6 83 3d 5b ef eb bc 57 d2 51 3d
       -0.029680675 0.06434306 -0.028800657 0.051225986
000260 f4 14 d9 3d e1 9e 20 3e 4d b1 16 3e ca 40 bc bc
       0.105996996 0.15685607 0.14716072 -0.022980113
000270 a9 34 86 bd d6 ac 97 bd a8 d7 15 be 10 3f 05 be
       -0.06553013 -0.07406013 -0.14633048 -0.13012338
000280 87 86 8a 3d da d0 2f 3e 92 b9 d5 3d 05 5f b3 bd
       0.0676394 0.17169514 0.10435785 -0.08758358
000290 4e 8b ea 3d c2 1a 02 3e 6f 5e fa 3c f7 de 2f 3e
       0.114523515 0.1270552 0.030562608 0.17174898
0002a0 cb c8 b8 bc 77 9a c5 3d 58 7c 37 3d 35 7a 60 3d
       -0.022556683 0.096486025 0.044796318 0.054804046
0002b0 41 91 1c bd 69 21 42 3e 8c 58 2f be 5c 3a cd 3d
       -0.038224462 0.18958057 -0.17123622 0.10020897
0002c0 0c 70 29 3c c6 e9 6e 3d e9 bb 2d 3d 79 85 3a be
       0.010341655 0.058328412 0.042415533 -0.18214978
0002d0 67 8b 1a 3e 2d d4 1e 3d ae ca ed bd 57 ab 77 bd
       0.1509224 0.038776565 -0.11610924 -0.060466137
0002e0 d3 57 04 bd d4 dc b4 bd 6d c1 1a 3e 26 bd 25 3c
       -0.03231032 -0.08831182 0.15112849 0.010115897
0002f0 c3 67 4a 3e b6 de 11 3d ca 0b 70 39 b5 16 5c bd
       0.19766144 0.035612784 0.00022892575 -0.053732593
000300 00 86 87 3d 3e aa 38 bd bb 20 6d 3d 42 cb 67 3d
       0.06617355 -0.04508423 0.057892542 0.056590326
000310 eb 20 f8 bc 41 93 54 3c 55 82 08 3e c9 c2 d5 3d
       -0.030289134 0.012974561 0.13330968 0.10437543
000320 7e 86 a5 3c 64 05 bf bc 43 04 65 bd 07 5b 1f bd
       0.020205732 -0.023318 -0.055912267 -0.03890517
000330 60 26 22 3e b7 9c 6c 3d a0 73 09 3e 6d 30 19 be
       0.15834951 0.057766642 0.13423014 -0.14959879
000340 7e bf d1 3d 0c c2 da 3d 87 63 ac 3d 73 3f b4 3d
       0.10241602 0.10681543 0.08417421 0.088011645
000350 20 35 dc bb 79 f4 f7 3d fb c8 97 bd c0 73 19 be
       -0.0067202 0.12107176 -0.07411381 -0.14985561
000360 bc 1d 86 bc 52 09 9b 3c d6 e6 04 3e a2 20 bc bc
       -0.0163716 0.018925343 0.12978682 -0.02296478
000370 5b 90 be bd 8b b4 00 3e 08 42 ca 3d ef 6e b5 3d
       -0.09304877 0.12568872 0.09875876 0.088590495
000380 1b 95 d5 bd 56 38 b2 bd e5 fc 50 3d f9 69 b5 bd
       -0.1042883 -0.087021515 0.05102243 -0.08858103
000390 32 84 45 3d f1 60 3b b9 54 31 3c bc d9 b6 58 bd
       0.048221774 -0.00017869823 -0.01148637 -0.052908752
0003a0 85 fa ca bd 57 14 4e bd 77 fe 08 3e 5c cc 8a bd
       -0.09911064 -0.050312366 0.1337832 -0.0677726
0003b0 fb 46 39 3d 05 46 cf bd 3f b2 d3 3d 43 27 26 3e
       0.045233708 -0.10120777 0.10336732 0.16225915
0003c0 7b ca 24 bd 3c da 8c 3d 23 9e 76 bd a9 fa 42 3e
       -0.040232163 0.068775624 -0.060209405 0.19040932
0003d0 60 ae 52 bd d3 8a 58 3e 54 f3 24 bd da 4c c3 bd
       -0.05143583 0.21146707 -0.04027112 -0.09536143
0003e0 e9 ed b0 3d 82 d5 8a bd 29 c6 8c bd fd d1 61 be
       0.08639128 -0.06779005 -0.068737336 -0.2205276
0003f0 84 ca 12 3d 24 29 1b 3e 6a 29 0c 3e 3d c7 cd bc
       0.035837665 0.15152413 0.13687673 -0.025119418

encoder.net.2.bias f4 [32]
000000 e8 8b b1 bd bb dc 71 3d 00 24 d9 3d 51 ab bd 3d
       -0.08669263 0.059048396 0.106025696 0.09261192
000010 01 1d 8d 3d 70 c2 52 3d 9a ee 04 3e 3d b4 a6 3d
       0.06890298 0.05145496 0.12981644 0.081398465
000020 db e3 a8 bb 6b 8f c8 3d c2 93 e7 3d f8 b0 52 3d
       -0.0051541156 0.0979298 0.113074794 0.0514383
000030 93 ed 11 3e 89 22 99 bd 45 fe be 3d 64 71 ee 3c
       0.14250784 -0.0747729 0.09325842 0.029106803
000040 0a b4 b8 bc 75 2b c7 bd 87 bd 42 bd 6b 63 70 3d
       -0.022546787 -0.09725086 -0.04754403 0.058688562
000050 9c 0f ed 3d 32 9a f7 bd 1c 75 ef 3c ec db d3 bd
       0.11575243 -0.12089957 0.029230647 -0.10344681
000060 16 a8 6b 3d 66 e5 c9 3d c7 34 5f bc 03 21 2e 3c
       0.057533346 0.098582074 -0.013623423 0.010627988
000070 c7 f7 26 3e de d8 cc 3d 46 9f ae 3c 6c 0f ad 3d
       0.16305457 0.10002302 0.021316182 0.08450207

encoder.net.4.weight f4 [5, 32]
000000 16 d5 a3 bc 19 79 fc 3d d5 91 2f 3d c8 32 c0 3c
       -0.019999068 0.12327785 0.042863686 0.023461714
000010 f1 1e af bd f2 0b e5 3c f3 a3 d0 3d 6c 0e fa 3c
       -0.085508235 0.027959798 0.10187521 0.030524455
000020 b3 81 78 3d b1 2a 12 3d e3 18 7a 3d 7e 25 94 bb
       0.060670566 0.035685245 0.06105889 -0.004521071
000030 ec 57 ea bd 38 ee 04 be 0a cf b9 bd 09 90 22 be
       -0.11442551 -0.12981498 -0.09072693 -0.15875258
000040 b3 34 a7 bd 39 e5 66 3d ed 01 2c 3e 22 ab 04 3e
       -0.081643485 0.056370948 0.1679761 0.12955907
000050 8a 2f d9 bc 1e ba 00 be 43 a8 02 be 4d 91 37 be
       -0.026511926 -0.12570998 -0.12759499 -0.17926522
000060 cd 77 3a be f5 7c 33 bd 63 80 4d 3e 4f ab 20 3e
       -0.18209763 -0.04382034 0.20068507 0.15690349
000070 c4 36 65 be ac 39 0b be 10 4d f5 bd e6 8d 29 3d
       -0.22384173 -0.13596219 -0.11977589 0.04139509
000080 8c b7 b5 bd fb 4c 1b 3e 17 ab 19 be 6a a8 1a 3e
       -0.088728994 0.15166084 -0.15006672 0.15103307
000090 03 87 3e 3e 3f 08 24 3e 1b 8e b3 bc ca 85 31 3e
       0.1860619 0.1601877 -0.021918347 0.17336193
0000a0 49 61 7d bc 26 0e 70 3e 7f 36 62 be 2f 17 b8 bd
       -0.015465089 0.23442897 -0.22091101 -0.08988797
0000b0 89 42 4b bd bb bc c3 bd 87 b7 37 be 47 02 fd 3d
       -0.049624 -0.09557482 -0.17941104 0.1235395
0000c0 1b 77 3e bd 79 e6 18 bd 3e 55 28 3d fe 31 6e 3d
       -0.046500307 -0.03732917 0.04109692 0.058153145
0000d0 3d 5f 8c 3d 72 41 1c be df 55 2a 3e 01 32 37 3d
       0.06854103 -0.1525934 0.1663432 0.04472542
0000e0 17 aa 57 3e cf 2c b2 bb 7a 36 08 bd a8 0a 01 3d
       0.21060978 -0.0054374705 -0.033255078 0.031504303
0000f0 5d 63 5a bd af 3d 3a bc ac 8f 42 be 32 03 3a 3d
       -0.053317416 -0.011367246 -0.19000119 0.045413204
000100 49 ee 3b 3d c8 a3 c3 3d 47 c3 4c bd b8 24 aa 3d
       0.045881543 0.09552723 -0.04999092 0.08307785
000110 d9 58 ac bc 9d 8c 74 bd 04 63 ae bd 0f 8e 82 bd
       -0.02103846 -0.05970441 -0.085149795 -0.06374752
000120 1a ee 56 3e 07 bf 7b bc fe f9 1b be eb 3b 9c 3d
       0.20989266 -0.015365369 -0.15232083 0.07628616
000130 92 4d 8c bd 8c 64 c6 3d 2e f2 36 be 8d 9f 37 3e
       -0.06850733 0.096871465 -0.17865822 0.17931958
000140 d2 a5 47 bc 9b 37 ac 3d 73 ec 00 be dc 06 d6 3c
       -0.012185531 0.084090434 -0.12590198 0.026126318
000150 d1 19 12 3d 81 ac 14 be 8c b6 26 be 6e d5 f9 bd
       0.03566915 -0.1451893 -0.16280574 -0.121989116
000160 18 5d 05 3d e9 43 59 3c 50 ae da bd cb 0c 1a 3e
       0.032559484 0.01326082 -0.10677779 0.15043943
000170 5c 18 c6 bd bb aa e4 3d 21 d8 87 3d 1e 3f 0e 3e
       -0.09672615 0.11165377 0.0663302 0.13891265
000180 68 0e b6 bd 99 99 a8 bd 8e c9 0c be 1d 99 b7 3d
       -0.088894665 -0.082324214 -0.13748762 0.08964751
000190 7a b7 bc 3d 15 ca 2c 3e f2 6d 8e 3d a3 ef 14 be
       0.09214683 0.16873963 0.06954564 -0.14544539
0001a0 1c 02 0e be e4 ae 1c bd d4 22 9e 3d c5 3e 02 3e
       -0.13867992 -0.038252726 0.07721487 0.12719257
0001b0 4c b6 99 3d 39 c2 03 3c 61 b1 b3 bd 0b 11 2f 3e
       0.075054735 0.008041912 -0.08774067 0.17096345
0001c0 c3 9e 3e be 8f a9 1c bd e0 a4 b8 3d 7e 2e ad 3d
       -0.1861525 -0.03824764 0.090158224 0.08456133
0001d0 71 b3 b3 bd af 6d f5 bd 5e eb bc 3d 19 0c 8d 3d
       -0.0877446 -0.11983811 0.0922458 0.06887073
0001e0 78 7d 09 3e e1 ad bf 3d 40 82 e1 3d 4b b9 22 bc
       0.13426769 0.09359337 0.11011171 -0.009931873
0001f0 c9 55 64 3e b2 1b 0d be b7 2a 04 be 6a 5b fa bd
       0.2229835 -0.13780096 -0.1290692 -0.12224467
000200 3c b6 23 be b9 39 07 bd c7 19 fa bd cc d3 d4 bd
       -0.15987486 -0.033014033 -0.12211948 -0.103919595
000210 44 63 5d be d9 b2 b7 bd 6f 87 08 3e 59 78 9d bd
       -0.21619898 -0.08969659 0.13332914 -0.0768897
000220 b3 0c 38 3d d1 9e 1c 3e 04 fb 8c 3d 7c eb 91 3c
       0.044933986 0.15294959 0.06883815 0.017812483
000230 89 80 4e 3e 35 33 12 be 94 82 25 3d 62 26 ae 3c
       0.2016622 -0.14277346 0.040407732 0.021258537
000240 53 4e 44 3e 10 c7 3d bc 72 ca 27 be 8b 0b 5e be
       0.19170503 -0.011583105 -0.1638582 -0.21684091
000250 69 d9 45 be 07 55 43 bc 0d 52 45 3e d1 6b 96 bd
       -0.19321217 -0.011922128 0.19269581 -0.07344783
000260 42 00 31 3e 76 76 1e 3d d8 e3 36 be 22 5b 8e 3d
       0.17285255 0.038687192 -0.17860353 0.06950976
000270 45 5e 3e 3d fc 8a a4 3d f5 c8 9e 3c d9 c0 01 be
       0.04647662 0.08034322 0.019382933 -0.12671222

encoder.net.4.bias f4 [5]
000000 5e 25 20 3c a2 52 b9 bb 1f 39 8a 3d 84 6c 08 3e
       0.009774534 -0.0056556026 0.06749176 0.13322645
000010 cf 2e 52 3d
       0.05131417

decoder.net.0.weight f4 [32, 5]
000000 81 eb b6 3e 87 44 05 bd 65 c6 f4 bd b2 1c 0b 3e
       0.3572655 -0.032536056 -0.11951903 0.13585165
000010 c7 f2 08 be 09 0f a4 be 58 f6 1c 3e b0 37 8e be
       -0.13373862 -0.3204272 0.15328348 -0.2777686
000020 96 f5 b4 bd 91 62 38 3d 79 53 b0 be 57 19 cf 3e
       -0.08835904 0.045015875 -0.34438685 0.4044902
000030 d6 25 e0 3d 1f 7c 87 3e c1 8d 98 be af 31 56 3e
       0.10944717 0.26461884 -0.2979565 0.2091739
000040 37 99 21 3e f6 7b de bd d4 0a 98 bc c6 24 a9 3e
       0.15781103 -0.108634874 -0.01855985 0.33035868
000050 0f 96 51 3d 0f 82 04 be d8 6f 97 3e 10 d7 93 3e
       0.051168498 -0.12940238 0.29577518 0.28875017
000060 ac 1a 8d 3d 88 f1 90 3e 02 87 ec 3e be fa af 3e
       0.06889853 0.28309274 0.46196753 0.3437099
000070 e8 3d e3 bc 29 35 be be 3b 6a 2b be f9 d9 3a 3e
       -0.02773948 -0.37149933 -0.16739742 0.18247212
000080 d6 58 86 be 1d 11 21 bd a2 6f f8 3e 5f 46 43 3e
       -0.2623965 -0.03932296 0.4852267 0.19069813
000090 93 d6 c9 bb 51 30 d1 3e f4 8b 15 bd d1 63 37 3b
       -0.0061596124 0.40857175 -0.036510423 0.002798308
0000a0 8d 45 01 3f 4b 51 25 3d 35 4a 9e 3e 41 ac a2 be
       0.5049675 0.04036073 0.3091599 -0.31772044
0000b0 b5 26 e3 3d 64 da 0a bd 10 84 7f be 85 ba 0c be
       0.11091367 -0.03389968 -0.24952722 -0.13743027
0000c0 52 65 95 3e 84 e8 4e bd bd d9 61 be 43 db 47 be
       0.29178864 -0.050514713 -0.22055717 -0.19517235
0000d0 ab a9 33 be 64 c3 20 3d 4c 8b 3c 3e fe e9 7d bd
       -0.17545192 0.03924884 0.18412513 -0.06199073
0000e0 ad a1 3c 3d 00 1d cc be 44 a7 e2 be a9 87 47 3e
       0.046052624 -0.39865875 -0.4426824 0.19485344
0000f0 66 1f 3e 3e cf 05 86 3e 91 94 42 be e5 9c c9 be
       0.18566665 0.26176307 -0.19001986 -0.39377514
000100 8e be f2 3e c9 91 94 be af f0 c0 3d ef e8 d4 bc
       0.47411007 -0.29017475 0.09420907 -0.025989978
000110 24 6c e6 bd b7 19 75 be 6b d0 f6 bd 68 58 63 bd
       -0.11251095 -0.2393559 -0.12051471 -0.055504233
000120 11 09 e8 be 7b a6 d9 3e fe 98 92 be f8 b2 65 be
       -0.45319417 0.42509827 -0.2863235 -0.22431552
000130 1d 24 99 be 3b 29 ba be f4 ff 44 3e cf 83 83 3e
       -0.29910365 -0.3635958 0.19238263 0.256865
000140 89 4f ba be bf 8a 9e be ac 43 bb 3d f2 4b 92 be
       -0.36388806 -0.3096523 0.09143767 -0.28573567
000150 9c e4 20 3e 87 31 a3 3e 35 3e 99 be 45 53 b9 3c
       0.15712208 0.31873724 -0.29930273 0.022622714
000160 c0 07 52 3e 8e 51 9c be ce 28 cd be de 55 a9 3d
       0.20510769 -0.3053097 -0.40070194 0.08268331
000170 ad c6 8a be 14 bf b6 be 47 c8 b4 be 6b 7a f3 3e
       -0.27104703 -0.35692656 -0.3530905 0.47554335
000180 55 ec d8 be 9f 6f 57 3c 60 74 39 be e8 8c 8b 3c
       -0.42367807 0.013149171 -0.181108 0.017034963
000190 12 13 cd bb b0 fe f5 3e ec 89 b3 3e 9b b4 43 bc
       -0.006258377 0.48045874 0.35066164 -0.011944915
0001a0 47 95 87 3e df d3 b3 bc 6a 40 14 bf fc 57 7d be
       0.26481077 -0.021951614 -0.5791079 -0.24740595
0001b0 7a 18 ed 3d 39 63 9e be 9a 5d a1 3d 26 52 e7 3e
       0.11576934 -0.30935076 0.07879181 0.45179862
0001c0 8b ec a5 be ee d0 bc 3e a0 cb bc be a5 15 97 3c
       -0.3240703 0.3687815 -0.36874104 0.018442938
0001d0 f0 83 5d be b9 2f 3d 3d 59 5b d1 be fb 10 64 be
       -0.21632361 0.04618809 -0.40890005 -0.22272103
0001e0 f5 f7 4e bc 87 cd 3c 3e b5 ae 0d be 6b 5d 56 3d
       -0.01263236 0.18437777 -0.13836177 0.052335184
0001f0 95 07 f6 3e 3e d0 cb be 53 ff e1 3d b5 39 72 be
       0.4805266 -0.39807314 0.11035027 -0.23654826
000200 f9 36 dd bb 4d 6c 2f 3d 9e 11 35 be d1 f8 a8 bd
       -0.006750938 0.042827893 -0.17682502 -0.08250583
000210 61 d1 e4 3d 01 92 03 3d 52 31 ee bd 01 d1 f0 be
       0.11172748 0.032121662 -0.11630501 -0.47034457
000220 20 cf 65 bd 4a 49 8f 3c 57 ca 71 be f6 2b 4d be
       -0.056105733 0.017491002 -0.23612343 -0.20036301
000230 f1 74 91 bd b3 46 fb bb 1d 69 be bc 02 46 a3 3e
       -0.07102383 -0.00766834 -0.023243481 0.3188935
000240 a7 08 25 3e 0a 8b 9c 3e d1 49 62 be 14 ed b5 3e
       0.16116582 0.30574828 -0.22098471 0.3553244
000250 e2 60 32 be 94 58 c0 3e 4e c7 52 3e f5 1e dc 3e
       -0.1741977 0.3756758 0.20583841 0.42992368
000260 cf c5 34 be a3 83 85 be e3 de 15 bd d3 ea a4 bd
       -0.17653583 -0.26076993 -0.036589514 -0.08052602
000270 1b 4a b0 be 8b d8 97 bc 5e f2 a1 3e c7 28 a2 3d
       -0.34431538 -0.018535873 0.31630224 0.07917934

decoder.net.0.bias f4 [32]
000000 99 07 ad be ad b4 69 3e eb 8e 77 3d 0e bb 94 be
       -0.3379486 0.22822829 0.06043903 -0.2904896
000010 62 c5 b3 be b8 7d b1 3a 28 55 97 3e af 2f 84 3e
       -0.3511153 0.0013541495 0.29557157 0.2581763
000020 06 c8 32 3e de 85 8b 3c 10 13 4a 3e 62 5b 54 be
       0.17459115 0.017031606 0.19733834 -0.20737985
000030 f2 99 6d 3e bc 96 98 3e 09 b6 90 3e 8e 06 17 bd
       0.23203257 0.298025 0.28263882 -0.036871485
000040 1b ea 99 3e 92 b1 fe bc 5f f7 1c be 66 01 e0 3e
       0.3006142 -0.031090531 -0.1532874 0.43751067
000050 df cf b8 3e 62 6e 8a 3e 86 74 8c 3e 6b 7e 44 3e
       0.36096093 0.2703734 0.2743265 0.1918885
000060 b4 08 4e be 51 89 c9 3d 55 2d 6a be 29 7f a8 3e
       -0.20120507 0.09840644 -0.22868855 0.32909516
000070 92 91 09 3e da b2 a3 3e 28 50 21 be 3f 01 8b bc
       0.13434437 0.3197239 -0.15753233 -0.016968368

decoder.net.2.weight f4 [64, 32]
000000 d6 6c 92 3d 97 71 ff 3d 17 99 d0 3b f3 a6 48 3d
       0.07149665 0.124728374 0.006365906 0.04898734
000010 1b d1 20 bd 4a f3 b7 bd e5 dc 49 3e 12 c0 30 3e
       -0.03926192 -0.089819506 0.19713171 0.17260769
000020 35 7d 9f 3d d7 19 36 3e 19 93 fd bb 20 c8 e7 bd
       0.07787553 0.17783295 -0.0077384827 -0.11317468
000030 8c b3 44 3c 2e aa c5 bd 68 3f 44 3e 4c a5 08 bd
       0.012005698 -0.096516 0.19164813 -0.033360764
000040 b0 3d d8 3c d3 3f ae 3d 3a 63 1a 3e cc 71 06 3e
       0.026396602 0.08508267 0.15076914 0.13129348
000050 fb 12 f5 bd 00 83 b6 3d 7f 9e 63 3e 77 c7 42 be
       -0.11966511 0.08911705 0.2222843 -0.19021402
000060 c5 e6 c7 bd 7e 8a 0d be 95 ca 2b be 8b 17 50 bd
       -0.09760813 -0.13822362 -0.16776498 -0.050803702
000070 3b a4 4a bc 21 c0 a9 bd f9 d6 6c 3c 09 fc d2 bc
       -0.012368257 -0.08288599 0.01445555 -0.025754945
000080 e6 8c 7b 3d 75 5b a3 bd 5f ed 38 3e 58 a8 20 3e
       0.061413668 -0.079764284 0.180593 0.15689218
000090 e6 c8 ae 3d 0c d5 94 3d 37 df 36 3e ba d4 04 3e
       0.08534412 0.07267198 0.17858587 0.12971774
0000a0 e4 ea ec bb f2 9f 38 be b2 2b 1d be af b0 98 3d
       -0.0072301496 -0.18029764 -0.153487 0.07455575
0000b0 f6 75 24 3d 92 e1 7a bd cc 72 ee 3c f0 4f 3b 3d
       0.04015156 -0.061250277 0.029107474 0.04573053
0000c0 12 9f bf 3d 72 7c 93 bd 17 cb 94 3c 00 f9 87 3c
       0.09356512 -0.072014704 0.018163247 0.016598225
0000d0 2c 40 ee bd 60 c1 bb bd 9a 04 fa bd d5 68 bd 3c
       -0.116333336 -0.09167743 -0.12207909 0.023121277
0000e0 1a 14 1e 3e c4 b6 17 be c3 78 41 bc 47 4c a2 3d
       0.15437356 -0.14815813 -0.011808577 0.07924705
0000f0 c3 4b f2 3d e4 0b 27 3e 8e 05 14 3d 49 40 4a 3c
       0.11830857 0.1631313 0.03613811 0.012344428
000100 27 9d 2d bd 5a 85 f8 3c b7 6c a6 bc 91 53 4b bd
       -0.0423862 0.030337024 -0.020315511 -0.049640242
000110 b2 d0 a6 3c 51 4e bf bd 7a c1 23 3e b1 a8 23 be
       0.020363186 -0.093411095 0.15991774 -0.1598232
000120 ec 32 b7 bd 70 73 45 bd e0 20 b7 3d f2 15 f1 bd
       -0.089452595 -0.048205793 0.08941817 -0.11771764
000130 07 c0 39 3e ae fe 92 bd bb 64 88 bd 55 ca 19 3e
       0.18139659 -0.071774825 -0.06659838 0.1501859
000140 01 54 51 3d f7 12 89 bd 71 bb 9f 3d 3d a7 51 be
       0.051105503 -0.066930704 0.077994235 -0.20473953
000150 54 41 3a 3e 65 64 8e 3b 80 9f 08 3d 6d ca 5f 3d
       0.18188983 0.004345464 0.033355236 0.054636408
000160 84 51 c4 3d e6 c4 2f 3e 42 fd 20 3e 79 50 54 3d
       0.0958586 0.17164955 0.1572161 0.051834557
000170 8f 63 7d bc c5 8a 26 3e 6d 0e 94 3d 1a 07 8e 3d
       -0.015465631 0.16263874 0.07229314 0.06934948
000180 80 b8 e1 bc 0a 06 1e bd f1 fb 18 be 82 40 fd bd
       -0.027553797 -0.038579978 -0.14939858 -0.123658195
000190 ff 4d c7 bb 5e 8a df 3d 54 65 c8 bd 12 60 02 3e
       -0.006082296 0.10915063 -0.09784952 0.1273196
0001a0 0a 72 c7 ba c0 32 ec 3b b3 55 1a 3e 30 65 c7 bd
       -0.0015216481 0.0072081983 0.15071754 -0.09736097
0001b0 7c dd a9 3d b9 76 24 bd 43 e9 18 be 9e a3 ff 3d
       0.08294198 -0.040152285 -0.14932732 0.124823794
0001c0 b2 bd 35 3d 92 83 17 3e d2 54 1f 3e 55 85 91 bd
       0.04437036 0.14796284 0.155597 -0.07105509
0001d0 05 04 f9 bd 94 15 81 3d 85 bd eb 3c 64 7c 3d be
       -0.1215897 0.06302944 0.028776893 -0.18504483
0001e0 0d 72 3c bd 44 ae ab bd ac 6c 70 bd b3 a0 f6 bc
       -0.046007205 -0.08382848 -0.058697388 -0.030105924
0001f0 f8 4b e0 bb d3 e2 76 bd a9 15 49 bd dd 96 4d 3d
       -0.0068449937 -0.06027491 -0.049092922 0.050192703
000200 24 24 80 3d 20 c9 26 be 02 79 45 bd 3e a0 dc bc
       0.06256893 -0.1628766 -0.048211105 -0.026931878
000210 1d be 24 be 05 da db bd 34 36 9c bd b4 c0 4f bd
       -0.16088147 -0.10734943 -0.07627526 -0.050720885
000220 dd a9 86 bd 5c c9 11 bc 48 48 13 be 3c 1a ef 3d
       -0.065753676 -0.0088981055 -0.14383042 0.11674926
000230 d0 13 9b 3d 6c e7 91 bd ce 2e 29 be f8 18 1b 3e
       0.07572138 -0.07124218 -0.16521761 0.15146244
000240 8e 42 be bd e0 74 d4 bd c0 15 40 bd 14 dc 29 be
       -0.09290038 -0.10373855 -0.046895742 -0.1658786
000250 30 08 28 3e 9c b6 91 bd 90 5e 21 be 4f e1 38 bd
       0.16409373 -0.07114908 -0.15758729 -0.045136746
000260 10 0b d8 bb 74 be 87 3c 2f ab 83 bd d8 5b 15 be
       -0.0065931156 0.016570307 -0.06429135 -0.14585817
000270 90 3e 10 be 11 1e 20 3e 44 c4 d7 3d 85 95 76 bd
       -0.14086366 0.1563647 0.105354816 -0.060201187
000280 f6 93 a2 bd 06 e7 00 3e e3 0c dc 3d aa f1 28 3d
       -0.079383776 0.12588128 0.107446454 0.041246094
000290 2c da d1 bd 2f 28 25 3e ae 3f 11 3d 0f c8 04 bc
       -0.10246691 0.1612861 0.03546112 -0.008104338
0002a0 00 d3 77 3d 9c 3f 33 be 84 9a 1b be 29 76 29 be
       0.06050396 -0.17504734 -0.15195662 -0.16548981
0002b0 cf be 0a bc b1 2b 22 3d 08 ad 19 3e c3 f1 65 be
       -0.008468344 0.03959245 0.15007412 -0.22455506
0002c0 fc e1 19 3e cf 0a 24 3e 8a 63 9f bd 32 a1 24 3e
       0.15027612 0.16019748 -0.077826574 0.16077116
0002d0 c7 9e b5 bd e6 05 df bd 9a 6f a6 3d f3 35 1f 3e
       -0.08868175 -0.10889797 0.08126755 0.15547924
0002e0 e2 cf 83 3d 0d fa 45 bd a9 0a 89 bc de a9 56 bd
       0.06436135 -0.04833417 -0.016728716 -0.05240809
0002f0 79 7b ad bd 36 06 50 3e ec 7e 5c 3d 12 84 71 bd
       -0.08470816 0.2031487 0.05383198 -0.058963843
000300 37 da ab bd a6 bb ae 3d 5e 3b 3f 3e 8a 19 06 be
       -0.083912306 0.08531885 0.1867499 -0.1309568
000310 bd c6 02 be 39 a7 f0 3d 56 8b bc 3d b5 c1 83 3c
       -0.12771125 0.11750645 0.09206264 0.016083578
000320 5e 91 2f be 7d ff b7 3d f9 ff 98 3d bd e0 a0 bd
       -0.17145297 0.089842774 0.07470698 -0.078553654
000330 fe 3c 35 be 80 00 10 3e b1 45 82 3d 62 0b b7 bd
       -0.17699048 0.1406269 0.06360949 -0.08937718
000340 01 03 4a be 27 51 8d bd 82 fa 71 3d d8 c0 15 3e
       -0.19727708 -0.06900244 0.059076793 0.14624345
000350 a0 cd 10 be 22 b6 22 be 5d 21 2e 3d b2 32 46 3d
       -0.1414094 -0.1588979 0.042512286 0.04838819
000360 1e 0c 8c bc e3 30 ac 3d 8f 0e 87 3d ea e9 cc bc
       -0.017095622 0.08407762 0.06594574 -0.025013883
000370 a6 80 b7 bd 60 f3 6f 3d 44 84 0d be a0 7a d8 bd
       -0.089600846 0.05858171 -0.13819987 -0.10570264
000380 c2 de c4 3d 83 0e 30 bd e8 cf 26 be 8b f2 6d bd
       0.096128 -0.04298259 -0.16290247 -0.058092635
000390 68 3f 55 3d db 02 59 be 8d bd 23 3e 3b 37 2f 3e
       0.052062422 -0.21192496 0.15990277 0.17110913
0003a0 7b 21 22 be 86 2a c0 3d 20 ce 57 3e bc bf 2b 3e
       -0.15833084 0.09383111 0.21074724 0.1677236
0003b0 3d 6a c0 3d a2 00 6a 3b 4a 03 0b be 59 32 7a 3e
       0.09395263 0.0035705944 -0.13575473 0.24433269
0003c0 d8 2c a4 3d ec 44 d3 3c a7 e9 e6 bd 6e 8c 27 3e
       0.08016366 0.0257897 -0.112750344 0.16362163
0003d0 dc a2 08 be e2 2a 34 3e 1f 10 25 3e 91 d3 a7 bc
       -0.13343376 0.17594483 0.16119431 -0.020486625
0003e0 05 94 5d 3d b0 11 3a 3e b0 dc eb bd c5 51 f5 bd
       0.05409624 0.1817081 -0.11516702 -0.11978487
0003f0 bd d0 42 3e 7f af 33 bd 62 95 38 bc 87 80 e4 3c
       0.1902494 -0.043868538 -0.011266084 0.027893318

decoder.net.2.bias f4 [64]
000000 51 f7 a1 bd df ab e4 3b 0b 89 1b 3c 06 24 9c 3c
       -0.079085 0.0069784964 0.009493123 0.019060146
000010 9c 26 66 bc 35 66 11 bc 91 da 8c 3d bd 04 bf bd
       -0.014047291 -0.008874466 0.06877626 -0.09327076
000020 8e b8 13 3d 03 4f 2b 3e e4 d7 a4 3d 91 ec 9f bd
       0.036064677 0.1672936 0.0804899 -0.07808793
000030 87 8e f8 3d fa d6 25 3d 8e c6 cc 3d 27 58 1c 3d
       0.1213656 0.04048822 0.09998809 0.038170006
000040 fe 14 2c bd 2f e2 91 3d fd 30 2f be 9a 18 b7 bc
       -0.042012207 0.07123219 -0.17108531 -0.022350598
000050 1c b1 2a 3d 83 08 26 bc e3 b6 98 bd 89 e5 8c bd
       0.04167281 -0.010133865 -0.07456758 -0.06879718
000060 02 54 79 bd fc 34 1a 3e bb 7f d8 bd 99 02 15 3e
       -0.06087113 0.15059274 -0.10571238 0.14551772
000070 1a 8e 01 bd bd bd 03 bd 69 cd 5d bd e8 bc 5c bd
       -0.03162966 -0.03216337 -0.054150973 -0.053891093
000080 13 c1 91 bd 51 95 0c 3e 45 c2 2e 3e 14 85 95 3d
       -0.07116904 0.13728835 0.17066295 0.07300773
000090 72 f5 13 3d eb ed 57 3d 86 10 2b be e1 cb 75 3d
       0.036122747 0.05271713 -0.16705522 0.060008887
0000a0 f4 b8 40 bc a9 27 90 bd 15 e7 9b bd a7 39 1c 3b
       -0.011762846 -0.070388146 -0.07612435 0.0023838074
0000b0 9b 46 a1 bd 18 6f aa bc 0b 3e fc 3c e5 3f 0b 3e
       -0.07874795 -0.020804927 0.030791303 0.13598593
0000c0 a0 39 fb bd db 6c a3 bd b2 99 d5 bd b5 f1 3f 3c
       -0.122668505 -0.07979747 -0.10429706 0.011715342
0000d0 98 67 b9 bd e5 ca 39 3d 2f 62 bc bd df 01 10 3e
       -0.09052962 0.04535951 -0.091984145 0.14063214
0000e0 11 3c dc 3c ed c2 5d 3d c4 b1 19 3e a7 64 5b 3d
       0.02688411 0.054140974 0.15009218 0.053562786
0000f0 fd d8 cd 3d 36 e6 2a be ae 48 0a 3e d9 92 29 3e
       0.10051153 -0.16689381 0.13504288 0.16559924

decoder.net.4.weight f4 [128, 64]
000000 5d 04 2e bc 03 63 57 3d 14 40 32 bd d9 ea bd 3b
       -0.0106211575 0.05258466 -0.04351814 0.0057958183
000010 34 e9 71 3d 8f 9f 15 be f0 66 b2 3d c3 08 73 3d
       0.05906029 -0.14611648 0.0871104 0.059334528
000020 dc 26 88 3d 7e 73 8c 3d 7f e2 72 3d ea e1 8c 3d
       0.06648037 0.06857966 0.059298035 0.06879027
000030 39 f9 e8 3d 00 b2 db 3d 6c 67 3a bd a8 87 d4 3b
       0.113756604 0.1072731 -0.045508787 0.006485898
000040 61 36 8f bd 32 b8 c9 bc 16 62 79 3d bf 1a c2 bd
       -0.06992794 -0.024623964 0.060884558 -0.09477758
000050 5a ee bb 3d d4 20 ad 3d 27 a8 b9 bd 7c ad 5b 3d
       0.09176321 0.08453527 -0.09065276 0.053632244
000060 c0 0e a3 3c f6 7d d5 bc 3c 66 be 3b c0 ba ed bd
       0.019904494 -0.02606104 0.005810527 -0.11607885
000070 85 08 c5 bb eb cb 9d 3d 76 c7 d5 bc f7 dc bd bd
       -0.0060129785 0.0770491 -0.026096087 -0.09270661
000080 a0 76 93 3b f2 8d 25 3d 1b 97 ab 3d 46 93 ba bd
       0.004500225 0.040418573 0.083784305 -0.091101214
000090 86 17 f5 bb d2 18 36 3a 0a ad 8a 3d e7 75 14 bd
       -0.007479611 0.00069464475 0.06771286 -0.036245253
0000a0 24 c2 a2 bc 5f 8f 02 bd 74 3a 6a bd b0 8c 10 3d
       -0.019867964 -0.03187501 -0.05718465 0.03529042
0000b0 27 7b 1c bd 64 14 dd bd d4 61 a7 bd 53 cb b1 3c
       -0.038203385 -0.10794905 -0.08172956 0.021703398
0000c0 88 d9 0e 3d ac 05 6a 3d 20 60 cd 3d b6 ff 11 3d
       0.034875423 0.057134315 0.100281 0.035644256
0000d0 cb a0 90 3d fd 67 8e 3d 42 01 a9 3d 26 e4 a7 bd
       0.07061919 0.06953428 0.08252193 -0.08197813
0000e0 ed 05 8a bd ed 64 a3 bd fb 17 98 3d 5a b0 f2 bc
       -0.067394115 -0.079782344 0.07426449 -0.029625107
0000f0 59 4f 9d bd 50 33 fd 3d f9 a9 8f b9 dc 97 3e bd
       -0.0768115 0.12363303 -0.00027401725 -0.046531543
000100 80 f0 39 bd 8d ab 72 bd cd 0c 94 3d 47 af ac bc
       -0.045395374 -0.059245635 0.07229004 -0.021079673
000110 8c e2 ba bd ad 66 8a 3d 11 36 a7 bd 1b 0c 93 bc
       -0.09125242 0.06757865 -0.08164609 -0.017950108
000120 e8 58 a9 bc b3 fc 5e 3d 25 d2 25 bc de 58 ea bd
       -0.020672277 0.05444021 -0.010120903 -0.11442731
000130 5b c6 d4 3c 10 c6 b9 bd 98 55 a3 bd a7 2d fa bd
       0.02597349 -0.090709805 -0.0797531 -0.12215739
000140 cd f8 ae 3a ae 30 2b bd 36 8c 5e 3d 04 05 e2 3d
       0.0013349295 -0.04179447 0.054332934 0.11036113
000150 7f 07 b4 bd 4d e0 d1 3c a6 89 e6 3d 92 5a 8b bc
       -0.08790492 0.02561965 0.11256723 -0.01701096
000160 7e ab b7 3d 60 23 6e bd 01 91 d6 bd 74 1d cc 3d
       0.089682564 -0.058139205 -0.10476876 0.09966555
000170 4b c4 99 bd 14 df 88 bd 85 41 6c 3b 5c 0d 8d bd
       -0.07508143 -0.06683174 0.0036049795 -0.06887314
000180 b6 39 e0 bd 3a 30 c9 3b e2 06 d0 bd 2f d2 32 bd
       -0.109485075 0.0061397823 -0.10157563 -0.043657478
000190 9a e7 6a 3d d8 32 ba bd 4a 4f 5d bd 5a ac 07 be
       0.05734978 -0.09091729 -0.054030694 -0.1324934
0001a0 e0 b4 88 3d 07 71 ed 3d 54 8a 47 3d 01 a7 80 3d
       0.06675124 0.11593824 0.048715904 0.062818535
0001b0 b4 d0 ad 3d 7c 27 dd 3d 8c 41 b9 bd f5 44 93 bd
       0.084870726 0.10798547 -0.09045705 -0.07190887
0001c0 84 80 f7 3d d6 a9 e4 3d 78 f3 ca 3c 3e 19 02 3e
       0.12085059 0.11165206 0.024774298 0.12704942
0001d0 d6 13 83 3d 1f 35 a8 3c a2 20 96 3d 6e 8f 9e bd
       0.06400268 0.020533143 0.07330443 -0.07742201
0001e0 e4 c7 b9 bd c2 d1 80 3c 6a 02 31 3d 6d b5 85 3c
       -0.09071329 0.01572502 0.043215193 0.016321862
0001f0 e8 ec 31 3d e8 df b4 3d f2 a3 7a bc 18 4e 80 bc
       0.043438822 0.08831769 -0.015297877 -0.015662238
000200 78 a1 08 3d 1a ee 86 3c cc fd d5 bc 16 36 90 bd
       0.033357114 0.016470958 -0.026121996 -0.07041566
000210 b0 d2 94 bd 81 4f a1 3d 3a b2 5f 3c f1 82 1c 3e
       -0.07266748 0.07876492 0.013653332 0.15284325
000220 60 b0 a3 bc ad 91 27 bd fa a6 48 bd f0 02 35 3b
       -0.019981563 -0.04091041 -0.048987366 0.002762016
000230 f7 c8 49 3d 6c fa 4f bd 42 a4 15 be e8 ae df bd
       0.04926392 -0.05077593 -0.1461344 -0.109220326
000240 61 26 06 bc ab 61 be bd cc c5 58 bd ce 2e b7 bc
       -0.008187861 -0.092959724 -0.05292301 -0.022361185
000250 32 5a e3 bd cf e8 18 3d 65 24 50 bd 4b 70 2f 3d
       -0.11101188 0.0373314 -0.05081596 0.0428317
000260 78 56 a1 3c c7 04 5e 3d 44 a1 4d 3d 98 88 9a bd
       0.019694552 0.054203775 0.050202623 -0.075455844
000270 13 69 e5 bd 64 12 59 bc fa ac 00 3d 82 3a cb 3d
       -0.11201682 -0.013249014 0.031414963 0.09923269
000280 be d8 d4 3d 67 9e c5 bd fc af 28 3d f3 29 af 3d
       0.10392903 -0.096493535 0.041183457 0.08552923
000290 54 f1 b2 bd be 22 ba 3d ed c8 15 3c a6 ee 73 bc
       -0.08737436 0.09088658 0.009142143 -0.014888441
0002a0 94 cb a3 3d 36 89 9a bd a0 94 67 bd b7 2d 36 3d
       0.07997814 -0.07545702 -0.056538224 0.04447719
0002b0 cb 49 65 bd 60 19 62 3d a7 04 dc bd 60 5f 33 3d
       -0.055978578 0.05519998 -0.10743075 0.04379213
0002c0 40 df e0 3c 00 ff 23 3d 0c 54 bf 3d 6a 29 8d 3d
       0.027450204 0.04003811 0.093422025 0.06892665
0002d0 c0 be 4b bc f5 3e 37 bd d0 fe 76 3d d6 a7 0a be
       -0.012435615 -0.044737775 0.060301602 -0.13540587
0002e0 72 09 54 bd fd da 08 3e 28 6e 1e 3e a1 3f 2c bd
       -0.05176682 0.13364787 0.15471709 -0.04205287
0002f0 fc 8b e4 3a a8 2e 06 3d a8 f0 17 bd 98 bf d8 bd
       0.0017436738 0.03275934 -0.037094742 -0.105834186
000300 4a e6 76 3d 6b aa a5 bc fb 53 e7 3c 2b 21 82 3c
       0.060278215 -0.020222863 0.028238287 0.015884956
000310 ac 5c 11 3d 66 f7 9b bd 5d d0 f3 bd 2c ba 49 3d
       0.03548877 -0.07615547 -0.119049765 0.049249813
000320 80 f2 d2 bd b0 8d 0e 3d c6 49 4c 3d db 40 a4 bc
       -0.103001595 0.034803092 0.049875043 -0.020050457
000330 11 d5 8c 3d 78 2d 10 bd f9 bc 1c bd 08 d0 ad bd
       0.06876577 -0.035199612 -0.038266156 -0.084869444
000340 16 cb a6 bd c4 ef aa 3d 1a ff db 3d 1a c8 c8 3d
       -0.08144204 0.08346513 0.10742016 0.09803791
000350 41 23 92 3d ef 3f 81 bd 35 14 86 bc 2d 67 57 bd
       0.071356304 -0.063110225 -0.016367057 -0.05258863
000360 a8 11 77 bd be 9f bc bd b0 95 99 ba 03 00 97 bd
       -0.060319573 -0.09210156 -0.0011717584 -0.07373049
000370 1a 72 e2 3d 51 b2 15 be 47 69 1d 3b c4 7c 33 3d
       0.110569194 -0.14618804 0.002401905 0.043820158
000380 c0 f3 27 bb 20 50 8f bd 85 16 75 bd 19 07 a6 3d
       -0.0025627464 -0.069977045 -0.05983593 0.081068225
000390 57 c3 45 3d 88 f6 c9 bd 33 01 9f 3d 5e f6 dd bd
       0.048281994 -0.09861475 0.077639006 -0.108380064
0003a0 88 a2 c7 3d a6 bf 90 bd 52 4c fb 3d 05 3c e2 3a
       0.09747797 -0.07067804 0.12270416 0.0017260319
0003b0 fc 0f de 3c c0 99 fa bb d4 79 06 be d7 85 1b bd
       0.027107231 -0.007647723 -0.13132411 -0.037969436
0003c0 a8 28 fe bc b0 87 6a 3d bc d1 8d 3d 1e f9 aa 3d
       -0.031025246 0.057258308 0.06924769 0.083482966
0003d0 27 c4 46 3d 73 be 1c bd 10 21 03 bd 1f 84 10 be
       0.04852691 -0.038267564 -0.032013953 -0.141129
0003e0 23 56 04 bd c3 39 5a 3d a3 38 b4 3d 94 39 7b 3a
       -0.03230871 0.053277742 0.08799865 0.000958347
0003f0 7c 62 f3 3a a0 10 4e 3c 02 4a 7f bd c3 81 f6 3c
       0.0018568779 0.012577206 -0.06232644 0.030091172

decoder.net.4.bias f4 [128]
000000 a1 62 6f 3d af 32 7d 3c cc a8 58 b9 da 51 95 3d
       0.05844367 0.015453978 -0.00020662247 0.072910026
000010 d6 b7 aa 3d 96 98 88 bd ec ac 92 bd 61 39 50 bc
       0.08335845 -0.066697285 -0.071618885 -0.012708993
000020 b5 3e 1e 3d ed 73 90 bd a3 70 82 3d ea da a2 bc
       0.03863402 -0.07053361 0.0636914 -0.019879777
000030 cf ea 1e 3d 72 69 ba bd 2d 7c b7 bc 77 f1 66 bd
       0.03879815 -0.09102143 -0.022398079 -0.056382623
000040 00 9d df 3c 93 83 38 3d b6 b6 d9 bd 92 de 96 3c
       0.027296543 0.045047354 -0.106305525 0.018416677
000050 59 0a 07 be 0c d7 38 bd a2 8d ea 3c ad a7 09 bd
       -0.13187541 -0.04512696 0.028631989 -0.033607174
000060 2d 50 59 bd a7 05 ae 3d 4c 8a 6c 3d bd 82 9d 39
       -0.053054977 0.08497172 0.057749078 0.0003004278
000070 ed 9c 9d 3d 2e 61 0f 3d be 87 32 bd 2d f2 a0 3d
       0.07695947 0.035004787 -0.043586485 0.07858691
000080 ae d2 b4 3d 14 1b 87 3c 02 36 89 bd c2 c4 cf bd
       0.088292465 0.016492404 -0.06699754 -0.101449504
000090 a5 04 ca 3d e1 32 91 3d ec 92 bb bd e9 30 2c bd
       0.09864167 0.070897825 -0.091588825 -0.04203883
0000a0 3d 8e 95 3c db 1c df bc 40 91 ba bd 26 ef 45 3d
       0.018256301 -0.027235439 -0.091097355 0.048323773
0000b0 ce 7b 65 3d 22 12 1a be c2 08 97 bd 63 05 c7 bd
       0.056026272 -0.1504598 -0.07374717 -0.09717824
0000c0 d1 0b 44 bd a8 b7 92 bd 8c 8d 90 3d 28 11 36 3d
       -0.04786283 -0.07163936 0.07058248 0.044449955
0000d0 8f 19 bb 3d 83 1f f4 bc 0e a9 41 3c 06 61 2a 3d
       0.09135734 -0.029800182 0.011820091 0.041596435
0000e0 14 22 99 bd 27 31 8f bd 11 54 50 bd 71 4a 22 bd
       -0.07477203 -0.06991797 -0.050861422 -0.039621774
0000f0 42 1b 42 bd 4d 3e a2 bc a9 de df bd a9 79 e5 3c
       -0.047389276 -0.019805098 -0.10931141 0.028012114
000100 04 cb 7c 3d d4 0f 14 bd 33 16 16 3d 4a 7a aa bc
       0.06171705 -0.036147907 0.036642265 -0.020810265
000110 c1 7c f0 3c b1 af a5 3d 9d 4a ae 3c 1a 64 b4 3c
       0.029356362 0.08090151 0.021275813 0.022020388
000120 6a c1 c1 bd a4 d3 8d bc 0d 86 4c bd b2 7c 7c bc
       -0.09460719 -0.017312832 -0.04993253 -0.015410589
000130 b7 f7 ad bd ca 74 a6 3c 98 01 a1 bd 28 60 20 3d
       -0.084945135 0.020319361 -0.07861632 0.0391542
000140 68 41 89 3d 7d 09 8d bd 03 fb 78 3d 67 cf 8f bd
       0.067019284 -0.06886575 0.06078626 -0.07021981
000150 ba 1e 59 bd af 0b 46 3b 6b 56 73 bc 44 93 dd 3c
       -0.05300782 0.0030219366 -0.014852147 0.02704776
000160 c9 08 c2 bb 4a 13 b0 bd 7c fd 6c bb 7c 88 23 bc
       -0.0059214574 -0.08597429 -0.003616183 -0.009981271
000170 fd 65 22 3d 0f c0 a2 3c d3 88 9c 3d 00 ae 77 bd
       0.039648045 0.019866971 0.07643285 -0.060468674
000180 59 34 b7 bc 91 e9 83 bd f2 57 be bd 58 55 3f 3d
       -0.022363828 -0.06441034 -0.09294118 0.04671225
000190 26 d9 1f bd ec 4b 15 3c f1 9f 8f bd cf c6 74 3d
       -0.03902545 0.0091123395 -0.07012928 0.05975991
0001a0 4f 8f f7 b9 b4 7c fc 3b d6 55 c6 bd 10 27 f1 3c
       -0.00047218284 0.0077052955 -0.09684341 0.029437572
0001b0 f8 8d 98 3c 67 01 7e 3d 59 3d 80 3d 49 d7 90 bc
       0.018622383 0.062013056 0.06261701 -0.017680781
0001c0 51 38 9e bd 1b c2 5d 3d 97 81 47 bd 09 41 9f 3d
       -0.07725585 0.05414019 -0.04870757 0.07776076
0001d0 1c 2c c6 3c 64 f9 17 3d 08 94 91 3c 58 10 07 bb
       0.024190955 0.03710307 0.017770782 -0.0020609107
0001e0 0c 02 a6 bc c8 40 11 3d f6 71 a7 3d e5 5e d9 3d
       -0.020264648 0.03546217 0.08176033 0.10613803
0001f0 6f cb 46 3d 5a 1d 6f bc 10 61 f6 3c b8 6e cb bd
       0.048533853 -0.0145944 0.03007558 -0.09933227
