models/lfblips/params.ckpt (torch, 66291 bytes, 24 tensors)

encoder.net.0.weight f4 [32, 64]
000000 fa 89 5a 3c 00 4c b2 3c 05 74 4f 3c 2f 4f 0d 3c
       0.01333856 0.021764755 0.012661939 0.008624836
000010 47 e4 17 3b b1 99 1b 3c e8 a1 7a 3c 09 6f e1 3c
       0.0023176835 0.009497092 0.0152973905 0.027518766
000020 a4 e6 91 3c 2f 12 3e 3c 8e 66 20 3d ac 13 81 3c
       0.017810173 0.011601015 0.039160304 0.01575645
000030 04 c6 bb bc f0 77 13 3c 25 e3 d1 b9 d3 0c f9 3c
       -0.02292157 0.009000763 -0.00040032822 0.030401623
000040 a0 3e 1a 3d d0 cb f4 3c 02 34 c5 3c 1f 89 3f 3d
       0.03765738 0.029882342 0.02407265 0.04676163
000050 f5 d5 1c 3d 9f e9 cc 3c 4f 0c 45 3d 88 33 5e 3c
       0.038289983 0.025013743 0.04810744 0.013562091
000060 99 89 68 bd 1f dc b7 bd 3f 0e d5 bd 98 34 1c bd
       -0.05677185 -0.08977532 -0.10403108 -0.038136095
000070 9a dd af 3c 93 ae d6 3d 42 98 db 3d 1c 1d 6b 3d
       0.021467973 0.10482516 0.107224 0.057400808
000080 cd 48 18 3d e8 f7 e5 3d 10 5d e5 3d 02 ee 16 3d
       0.037178803 0.11228925 0.11199391 0.036848076
000090 5f f4 a5 bd f4 d0 6c bd 26 c5 10 bb 87 5a e3 3c
       -0.08103251 -0.05781646 -0.0022090166 0.027753128
0000a0 6b 1d 7c 3d b9 f4 45 3d 32 36 07 3d 82 66 29 3d
       0.061551493 0.04832909 0.03301067 0.041357525
0000b0 a0 43 8a 3d c3 c7 15 3d 57 a6 43 3d 44 39 80 3d
       0.0675118 0.03656746 0.047766056 0.062609226
0000c0 d9 4d 49 3d e3 87 57 3d 81 d4 0c 3c 4c d7 48 3d
       0.049146507 0.052619826 0.008595587 0.049033448
0000d0 fa cf 13 3d 4d 7e 1b 3d be 27 01 3d 9e 02 dc 3c
       0.036087014 0.037962247 0.03153204 0.026856717
0000e0 e5 c5 63 3b 95 fe 95 3c 40 c7 75 3b 0c 7e 76 bc
       0.0034755406 0.01830987 0.0037502795 -0.0150447
0000f0 b7 f9 a4 3c 15 f1 f9 3c 2f 91 2b 3a 09 bf be 3c
       0.020138605 0.030510465 0.00065447664 0.023284452
000100 7e 8c 96 bc c6 b3 45 bd 41 f8 91 bc ba a6 ab bc
       -0.018377539 -0.04826715 -0.017818572 -0.020953525
000110 6c bb dd bc 30 e7 ca 3c 1d 1e 65 3c 6d 8a 15 bd
       -0.027066909 0.024768442 0.01398423 -0.036508966
000120 4a ff 10 bd f2 2a 22 bd 7c 9d 67 bc 87 6a 94 3c
       -0.035399713 -0.039591737 -0.014136668 0.018117202
000130 14 d7 a0 bc c0 ed 1e bd 9c 36 52 bd 70 64 99 bd
       -0.019633807 -0.038800955 -0.05132161 -0.0748986
000140 67 fa 5e bd cd 32 21 bd fd a2 53 bc 70 c2 b9 3c
       -0.05443802 -0.039355088 -0.012917277 0.022675723
000150 1e 1f 80 3d 91 6b b6 3d bd 24 75 3d f8 2b 7d 3d
       0.06255935 0.089072354 0.05984949 0.06180951
000160 f6 50 eb 3c 19 41 a7 bb ad f0 1d be bc 35 41 be
       0.028725129 -0.005104196 -0.15423842 -0.18868154
000170 55 e6 5c be 8b 97 92 be a1 91 2e be e9 fe f1 3d
       -0.2157224 -0.28631243 -0.1704774 0.118161984
000180 a8 12 80 3e 40 03 77 3e db e2 5c 3e 6f 2d 14 3e
       0.25014234 0.24122334 0.21570913 0.14470457
000190 3e 3c 16 3e 60 bf a5 3d 3c c1 52 be 6f ec 80 be
       0.14671418 0.080931425 -0.20581526 -0.25180385
0001a0 14 12 ce bd 8c 9f 6f 3d b4 48 1f 3e 91 a9 2b 3e
       -0.10062042 0.058501765 0.15555078 0.16763903
0001b0 bb 63 18 3e 02 b3 16 3e 12 c5 a0 3d fc 94 84 3d
       0.14881794 0.14716724 0.07850088 0.06473729
0001c0 73 02 38 3d 80 6c c4 3c 0d d3 d7 3b 0b a5 0b bc
       0.04492421 0.023977518 0.0065864385 -0.008523236
0001d0 ac 8a bf 3c 03 bb 0f bd ff 4b 1e bd d0 82 07 bc
       0.023381554 -0.035090458 -0.038646694 -0.008270934
0001e0 d8 67 3f bd dc ef 80 bb cc 63 48 3c cc cd 59 bc
       -0.046729892 -0.0039348435 0.012230825 -0.013293695
0001f0 22 91 eb bc 83 f8 30 bd 2f 09 7c bd ee 44 04 bd
       -0.028755728 -0.04320575 -0.061532196 -0.0322923
000200 3f f8 40 bd 49 2d f9 3c f8 82 70 3d 31 34 b1 bc
       -0.047111746 0.030417101 0.05871865 -0.021631332
000210 ec 36 ec 3c 16 fb 0b bd 04 2e f3 3b 57 56 f5 3c
       0.028834783 -0.034175 0.007421257 0.029948397
000220 a3 88 75 3c d1 1a d0 bc cf 95 98 bc dd 1b 35 bd
       0.01498619 -0.025403412 -0.018626122 -0.044216026
000230 e2 71 5b bd c6 5d 99 3b 72 28 35 3c d5 d2 58 bb
       -0.053575404 0.004680368 0.011057006 -0.003308465
000240 d8 e6 af 3b d4 15 0d 3d 10 27 03 3d eb e3 0f 3d
       0.005368095 0.034444645 0.032019675 0.03512947
000250 f8 09 fd 3b 7d 24 80 3d dd a3 08 3e f9 cc 22 3e
       0.0077221356 0.062569596 0.13343759 0.15898503
000260 0c a2 8d 3d 93 e7 08 bd 3d 95 ea bd db 5b 13 be
       0.069156736 -0.03342397 -0.11454246 -0.14390509
000270 46 ad 2b be d8 df f1 bd 3a 52 3d bd a0 1d b1 3d
       -0.16765317 -0.11810273 -0.046220995 0.08648229
000280 de 5d 44 3d 7e 35 aa be 09 2d ef be 97 80 9b 3d
       0.04794108 -0.33243936 -0.46714047 0.07592886
000290 2c f6 06 3f 26 96 ac 3e 5b b1 fc 3d 8c 9f 17 3d
       0.5271938 0.33708304 0.12338515 0.03701739
0002a0 72 5a 48 3c 4e 81 f2 3c b2 c8 7c bd a7 1c eb bd
       0.012228595 0.029602673 -0.061714835 -0.114800744
0002b0 0f 81 bd bd 69 9a 37 bd f2 46 56 bd 8d 89 48 bc
       -0.092531316 -0.04482499 -0.052313752 -0.012239826
0002c0 6b 0c 61 3c c4 30 05 3c 94 56 2d bb 3e 5b f7 3c
       0.013735871 0.008129302 -0.002644931 0.030194875
0002d0 b5 61 e3 3c 85 e6 eb 3b 88 e5 6e 3b ee f5 80 3c
       0.027756551 0.007199111 0.003645273 0.015742268
0002e0 c7 53 5f 3c 07 e3 07 bc 06 f0 b4 bc eb 7c 1e 3c
       0.013630814 -0.008293874 -0.022087108 0.009673337
0002f0 0a 4e 0a bd d6 8b a9 3c 35 88 e3 3c 18 90 c5 3b
       -0.03376583 0.020696562 0.02777491 0.00602914
000300 62 92 ed bb ac 2e f3 3d 09 02 3a bc c8 e4 dc 3c
       -0.007250116 0.11874136 -0.011353024 0.02696456
000310 4f 0d 26 bd 04 cd 01 3e 41 06 61 3d b3 9a 10 3d
       -0.040540036 0.12675864 0.054937605 0.035303783
000320 df ba ce 3d 39 7f bf 3d ff f6 02 3e 8c bf 30 3d
       0.100942366 0.09350438 0.12789534 0.043151423
000330 99 b3 f1 3d 6e 6e 8e bc 8f f7 ed bd 51 e2 b7 3d
       0.11801834 -0.017386641 -0.11619484 0.08978713
000340 a6 60 ba 3d 6b 7b 8f bb 1c 01 28 b9 9e c7 0a b9
       0.091004655 -0.0043787262 -0.00016022142 -0.00013235069
000350 c2 3f a4 3d 1c 33 1d 3d 1e 11 f4 3d 2f 39 75 be
       0.08019973 0.03837882 0.11917327 -0.23947595
000360 01 80 1d be cb cb 21 be 8d 46 9c 3d ca c4 01 be
       -0.15380861 -0.15800397 0.07630644 -0.12672725
000370 3a 53 98 be 3f a9 04 3e b3 81 0c 3f cb 73 d7 3e
       -0.29750997 0.12955187 0.54885405 0.4208053
000380 8b d9 bd 3d c2 18 25 be 60 b4 10 be 88 a9 d7 bd
       0.09270009 -0.16122726 -0.14131308 -0.105303824
000390 a3 9c 7b 3e 06 04 70 3e 36 a1 4a bd a7 e0 63 be
       0.24571471 0.23439035 -0.04947015 -0.22253667
0003a0 5d 61 7d be 4e a4 9c be da ee 65 be 39 5c 41 bd
       -0.24744172 -0.30594105 -0.22454396 -0.04720709
0003b0 e7 79 9e 3d 6a ef 67 3e cb e6 c2 3d 8a 70 8c 3d
       0.07738095 0.22649923 0.095166765 0.068574026
0003c0 c3 c0 ae 3c 93 01 50 3d b6 b2 d3 3b 6d 38 04 3c
       0.02133215 0.05078275 0.006460513 0.008070094
0003d0 89 44 6f bd a9 9b 90 3d b2 67 2c bd 50 71 bb bb
       -0.05841497 0.0706094 -0.04209108 -0.005720295
0003e0 44 6e cb bc ac c9 0b 3e 56 5f ad 3d 70 53 bd 3d
       -0.024832852 0.1365115 0.084654495 0.0924443
0003f0 9b f5 ea 3d a7 75 98 3b b6 a4 09 3d ee 31 a5 bc
       0.11472627 0.004652697 0.033604346 -0.02016541

encoder.net.0.bias f4 [32]
000000 5f 17 03 3e 7d 05 38 bd 39 55 a2 3d 78 be 69 be
       0.12801884 -0.04492711 0.07926411 -0.22826564
000010 33 e1 46 3e 75 db 8a 3e fe 6c bc 3d fd 0e 70 3e
       0.19421844 0.27120557 0.09200476 0.23443218
000020 31 b3 6a bd b0 a9 02 3d 1e be 31 bd 43 34 80 3e
       -0.057299796 0.031900108 -0.0433942 0.25039873
000030 79 47 8d 3e c5 4a 96 bb e9 f1 10 3e ba 38 68 3d
       0.27593592 -0.00458655 0.14154781 0.056694724
000040 61 96 cc bd e2 63 3a bc 39 32 26 3e 6c 5d d9 3d
       -0.0998962 -0.011376353 0.16230096 0.10613522
000050 a4 a9 fd 3c 17 42 3c be 56 69 85 bb 8c 53 2e 3d
       0.03096468 -0.18384586 -0.004071395 0.042560145
000060 0b 3a 0d 3e ad cc a7 bc 80 57 fd bc 93 fb e4 3c
       0.13791673 -0.02048334 -0.030925512 0.027951991
000070 b6 75 a7 3e d4 bd ba 3d 08 94 02 3c 90 ca ba 3d
       0.32706994 0.09118238 0.007969864 0.09120667

encoder.net.2.weight f4 [5, 32]
000000 03 5d 93 bd eb 9d 78 3d ba d3 9e bd e0 d3 14 be
       -0.07195475 0.060697477 -0.077552274 -0.14533949
000010 62 27 08 be b8 95 87 be 41 70 60 bd ae e1 57 be
       -0.13296273 -0.26481414 -0.054794554 -0.21082184
000020 81 62 23 3e 0d 9a f8 3d 73 8f 26 3d 08 de 54 be
       0.15955545 0.12138758 0.040664148 -0.20787823
000030 7e 41 be 3c f1 e0 9f 3e 3b f0 d8 bd cd 14 c3 bc
       0.023224588 0.31226304 -0.10592695 -0.02381363
000040 6c 5f 95 3e 2b 22 ac 3d a4 40 a1 bd a0 dc 01 bd
       0.29174364 0.084049545 -0.07873657 -0.031704545
000050 f6 3d ed 3d c4 48 a1 3e 06 74 1a 3e 5b d5 4d be
       0.11584084 0.31500828 0.15083322 -0.2010092
000060 02 95 4b bd bb be a0 3d ae 60 b9 3d 86 a0 83 bd
       -0.04970265 0.07848879 0.09051643 -0.06427102
000070 b1 d6 53 3e a7 bd 24 bd 84 6f d5 bd a5 71 6a 3e
       0.20687367 -0.04021993 -0.104216605 0.22894914
000080 35 8f b9 bc 45 91 3b 3e b3 2d 94 3c 05 91 cf 3c
       -0.022651294 0.18317135 0.018088197 0.025337705
000090 dc 65 da 3b ea 0d 82 bd 58 c5 97 bb 8f dc a5 bd
       0.0066649746 -0.0635031 -0.0046316795 -0.08098709
0000a0 c2 f2 bc bd 4a c1 04 be bc 45 28 be a3 86 8d be
       -0.0922599 -0.12964359 -0.16432852 -0.27641782
0000b0 fa f7 b0 3d c3 27 d9 bd 7e 6f be 3c 14 af 2b 3e
       0.08641048 -0.10603287 0.023246523 0.16766006
0000c0 92 7f e9 bc ac 43 18 3d 7b a2 a5 3d e9 ef e5 bc
       -0.028503213 0.037173912 0.08087631 -0.0280685
0000d0 09 8c 28 3d 9a 10 e0 bd 57 c6 0b 3d 29 16 3e 3d
       0.041149173 -0.109406665 0.0341247 0.046407852
0000e0 e2 db 7b 3d 53 a3 3a 3e 99 e6 ec bc 84 e6 10 bd
       0.061488993 0.18226366 -0.028918551 -0.035376087
0000f0 95 fa 81 3e 45 50 c5 bc c4 66 12 3d 3c 52 0f 3d
       0.2538649 -0.024086127 0.035742536 0.034990534
000100 f8 87 a3 bd af 19 1a be dc 0a 8b 3d 81 cd 5e bd
       -0.07984918 -0.1504886 0.06789181 -0.054395203
000110 4c ce 96 bb 59 f9 63 be 79 e7 fb bd ee d5 f6 3d
       -0.004602229 -0.22263087 -0.12300009 0.120525226
000120 6f a3 8f 3d 1e 85 af 3d cb b5 c8 3d d9 a3 7d bd
       0.07013594 0.08570312 0.09800299 -0.061923835
000130 c7 fa 18 bd 03 ac 21 3e f0 d2 cd 3d 1a 76 a1 bd
       -0.037348535 0.15788274 0.10049999 -0.07883854
000140 df 1d cd 3d 2c 1d 4b be 70 0a 4a 3d 25 55 09 3d
       0.10015463 -0.19835347 0.04932636 0.033528466
000150 33 92 0b 3c cb 7f 48 3d 7d 69 c9 bc 83 ae bb bd
       0.008518743 0.048949998 -0.024586434 -0.09164145
000160 ce 4b c3 bc 14 c5 8e 3d 89 55 d8 3d dc 63 5b 3e
       -0.023839857 0.069711834 0.105631895 0.21424812
000170 01 e8 fc 3c b1 51 52 bc 3f 14 e8 bd 8c 4d 1a 3e
       0.030872347 -0.01283686 -0.11331987 0.15068644
000180 7e db 87 3d ae 84 84 3d 03 c2 a4 bd cc c2 34 be
       0.06633662 0.06470619 -0.08044817 -0.17652434
000190 94 3a 36 be d0 ab 04 be df b1 05 bc b0 42 27 be
       -0.17795783 -0.12956166 -0.008160084 -0.16334033
0001a0 5a 77 df 3d b9 b5 3f 3e d4 60 0d be 06 14 83 bd
       0.109114364 0.18721665 -0.13806468 -0.064003035
0001b0 39 80 2c be 1c 9c 83 3e 53 80 ae 3d b4 12 15 3e
       -0.16845788 0.2570504 0.0852057 0.14557916
0001c0 8d 26 a2 3e d2 95 df bd 7f ca b9 3d 1e cc be bd
       0.31670037 -0.10917248 0.09071826 -0.09316276
0001d0 70 b6 23 3d e3 73 28 3e 4a 8b a2 3e e2 c0 07 be
       0.039968908 0.16450457 0.31746894 -0.13257173
0001e0 e6 c4 78 3b 15 b5 b4 bd 66 73 d1 bc 76 80 0d 3e
       0.0037959157 -0.08823601 -0.025567722 0.13818535
0001f0 72 ea a4 3b 3f 51 fc bd 60 86 39 bd bf 1a 24 3e
       0.005032831 -0.12320184 -0.045294166 0.16025828
000200 8b 6e 96 3c 7e 2d 50 bc 5b ce 2b 3e 5a a2 80 bd
       0.018363258 -0.012706159 0.16777937 -0.06280966
000210 f6 b4 3b be 52 9b 93 3c f7 94 2d 3d 22 6d 3b 3d
       -0.1833075 0.018018398 0.042378392 0.045758374
000220 ad 0a d2 bd b3 c0 8d 3d b4 d2 a6 3d 0d bf 10 3d
       -0.102559425 0.0692152 0.08145657 0.03533845
000230 e2 a7 a0 be f3 55 43 bd da 0e 54 be 54 2f 9f bd
       -0.31378084 -0.04768939 -0.2070879 -0.07772699
000240 68 83 dd 3d 8e 13 9d 3d 0a 0e 56 3e c1 3b ed bd
       0.108160794 0.076697454 0.20903793 -0.11583663
000250 f7 81 fa bd 57 4b 42 be 5d d2 81 3e 40 75 fd 3d
       -0.1223182 -0.18974052 0.25355807 0.12375879
000260 b9 7d 92 3d 2b d2 80 3b 0d 3c 89 bd be 59 84 bd
       0.07152886 0.003931304 -0.06700907 -0.064624295
000270 6c 34 29 3e 98 32 02 be 8b 25 79 bc 8e 02 e0 3d
       0.16523904 -0.12714612 -0.015206705 0.10937987

encoder.net.2.bias f4 [5]
000000 bd 51 86 bd 6e 6b 0d be c2 3b 11 3e 05 7f 1d 3e
       -0.06558559 -0.13810512 0.14182952 0.15380485
000010 d1 49 07 3e
       0.13211752

decoder.net.0.weight f4 [32, 5]
000000 b6 1c b1 be 6d 5d c1 bc d9 86 d0 3d 8f ff 99 bd
       -0.34592217 -0.02360412 0.1018197 -0.07519447
000010 5a 5e ce 3d 96 97 57 3c e3 ce e0 be 71 dc da be
       0.1007659 0.0131586995 -0.43907842 -0.42746308
000020 73 cb 9a be 9e da 12 3e 18 95 9b 3d d6 a0 ce be
       -0.30233344 0.14341208 0.07596797 -0.40357083
000030 0f 22 cf be 9d 2d 36 3e c3 25 18 be 96 bc f2 3d
       -0.40455672 0.17790838 -0.14858155 0.11852376
000040 e8 f5 18 3d 59 30 dc 3d 1e 60 74 be 5b 6d dc 3c
       0.03734389 0.10751409 -0.23864791 0.026907614
000050 13 97 2d bf cb be 63 bd 24 ed da be 8c 0d db be
       -0.67808646 -0.055601876 -0.4275905 -0.42783773
000060 76 65 02 be 9c c7 d3 be 78 fb bb be b8 85 c8 3e
       -0.12734017 -0.41363227 -0.36715293 0.3916452
000070 4b c7 09 be df fe bc 3e ec 9f a2 3e fc 44 f1 3b
       -0.1345493 0.369132 0.31762636 0.00736296
000080 f7 8a f9 be fc f6 f0 3d 39 60 da be cd 80 1b bd
       -0.48738834 0.117658585 -0.42651537 -0.03796463
000090 85 85 43 3e d5 76 13 3d e4 d3 bf be 99 b8 55 be
       0.19093902 0.036002 -0.37466347 -0.208712
0000a0 21 71 0c be e1 0b 86 3e fa 74 9a be 52 4c 83 3d
       -0.1371503 0.26180938 -0.3016737 0.06411041
0000b0 3e a0 27 bc 80 94 2e 3e a3 87 5b 3d 12 10 80 3e
       -0.010231076 0.17048836 0.05359615 0.2501226
0000c0 28 41 41 3e 8d d2 37 3e a1 cb 34 bf b1 d2 2b 3f
       0.18872511 0.17951412 -0.70623213 0.67118365
0000d0 b0 fd 35 bd f0 ae de be 25 3c ff 3e eb 20 02 3d
       -0.04443139 -0.43492842 0.49850574 0.031769674
0000e0 5a 2f 5e 3e af 42 23 be 57 c6 2f 3d c6 c4 4c be
       0.2169775 -0.15943407 0.04291376 -0.19996938
0000f0 b5 c4 ba 3e 5b ca e1 3d 16 9c 2d bc c7 aa d5 bd
       0.364782 0.11024924 -0.010596296 -0.10432964
000100 3c 28 5d 3d 17 17 1e 3f 05 63 87 be 07 32 fd be
       0.05399345 0.6175398 -0.26442733 -0.4945223
000110 6f 18 2a bf dc 49 98 3e 19 25 22 bd 37 98 10 bf
       -0.6644353 0.2974385 -0.03958616 -0.5648226
000120 2d 31 9f be c6 8b eb 3e e5 26 02 bd de 0a 9c bd
       -0.31092206 0.46005076 -0.031775374 -0.0761926
000130 b4 70 58 be 99 04 6f bf 33 df db bc a0 52 3d bf
       -0.21136743 -0.9336639 -0.026839828 -0.739542
000140 54 d0 43 3d 0e e5 fc 3c 50 40 ea 3d f3 03 24 be
       0.0478061 0.03087094 0.11438048 -0.16017132
000150 3d 8c 02 3f c8 13 80 3d fc 28 db 3d 47 4c 9c 3e
       0.50995237 0.06253773 0.107011765 0.30526945
000160 69 08 46 bf 89 74 de be 43 ef 59 be d7 49 e8 bc
       -0.7735658 -0.43448284 -0.21282677 -0.028355522
000170 27 ea 73 3e fa 39 f2 3d 85 45 13 3e c2 30 d5 be
       0.23819791 0.118274644 0.14381988 -0.41638762
000180 a8 6e 95 3e f7 2f 47 be 1a 16 94 be 23 50 75 3e
       0.29185987 -0.19451891 -0.28923112 0.23956351
000190 52 41 94 3e 47 21 b4 be 7f 2f 3e bd 4f 3c a8 3b
       0.28956085 -0.3518164 -0.046432015 0.0051341425
0001a0 a4 4b eb 3d 31 3a e2 3d 98 83 b1 3e c6 e3 c4 3e
       0.11489037 0.110462554 0.3467071 0.38455027
0001b0 eb be 37 be 48 06 ef bd 5e f1 9c be c3 5a 2c 3f
       -0.17943923 -0.1167112 -0.306529 0.6732599
0001c0 d3 87 bb bc d8 79 28 bf 96 91 2c bd be 0a 80 bd
       -0.022891914 -0.6581092 -0.04213103 -0.06252049
0001d0 51 5a 0d 3e c6 8b af be c1 49 bf be 03 73 bc 3e
       0.13803984 -0.34286326 -0.37360957 0.36806497
0001e0 9d bb 5d 3d 6b 86 12 bf 46 68 1f 3f ed 36 8e be
       0.054134 -0.57236356 0.62268484 -0.2777628
0001f0 15 2e 37 bd 9f 98 94 3e f1 34 09 3e 96 93 3d 3b
       -0.04472168 0.2902269 0.13399102 0.002892708
000200 08 16 47 be 2f 31 a6 bd 71 83 ac be 07 d8 9a 3e
       -0.19441998 -0.0811485 -0.33694032 0.3024294
000210 b5 f6 27 3e 5d d1 d9 bc d1 ae c3 3e 5f 21 fc bc
       0.16402705 -0.02658909 0.38219312 -0.030777631
000220 3f 4c c4 3d a7 07 a8 3e ce 98 55 3d ea a6 e5 3d
       0.09584855 0.32818338 0.05214768 0.11213477
000230 ac 36 f2 be 50 47 cc 3d 1b b7 ca 3e 45 76 bd 3e
       -0.47307336 0.09974539 0.39592823 0.37004295
000240 3b b8 8d bd c6 df 79 bd b4 9b 8c 3e 4e 35 01 bf
       -0.06919905 -0.061004423 0.27462542 -0.5047196
000250 8a a8 ff 3e d4 a6 f8 3d 90 d8 9c 3d 1a a5 87 be
       0.49933273 0.12141195 0.076584935 -0.2649315
000260 66 9e 2f bb 79 96 38 be 1d 54 c3 3d 2f 56 d9 be
       -0.0026797294 -0.18026151 0.09537528 -0.42448565
000270 db b3 a4 be 9b 6f 85 3e bc a7 51 3e c4 46 b9 3c
       -0.3216847 0.2606171 0.20474142 0.022616751

decoder.net.0.bias f4 [32]
000000 77 ac b7 be 11 43 7a 3e e5 20 92 be 3e 73 95 3d
       -0.35873768 0.24439646 -0.28540722 0.07297371
000010 f5 60 12 be 1b 79 62 be 4f 7f 93 3e 19 8b 10 3e
       -0.14294799 -0.2211651 0.28808066 0.14115562
000020 6a 5d 29 3e af 2e 44 3d e5 9f d3 bd 99 12 0a 3e
       0.16539541 0.047896083 -0.10333232 0.13483657
000030 e1 63 b1 be c0 98 8a 3d f7 15 39 bd 86 fc a9 3d
       -0.34646514 0.06767416 -0.045186963 0.08300118
000040 52 05 f9 3d 9c e0 b0 3d a5 ac 11 bd a1 08 d9 be
       0.12159218 0.08636591 -0.035565037 -0.42389396
000050 32 f1 18 3e 01 9a 17 3e fd 8c c0 bc ce e3 cd be
       0.14935759 0.14804842 -0.023504728 -0.40212864
000060 75 60 b9 bd 07 81 1e 3e 55 b6 b7 bc 9e ce bf be
       -0.09051601 0.15478908 -0.02242581 -0.37462324
000070 d4 30 d9 3c e6 53 db 3d a6 e3 b1 3d 25 18 8a bb
       0.02651254 0.10709362 0.086859986 -0.004214304

decoder.net.2.weight f4 [64, 32]
000000 70 45 c5 bc 54 3f b7 bd f9 7c 15 bc a8 29 42 bc
       -0.024080962 -0.08947626 -0.009124034 -0.011850752
000010 6b 26 a1 3c d8 d7 05 be dd d3 91 bd b1 53 df bc
       0.01967164 -0.13070619 -0.07120488 -0.027261587
000020 6e be 4e 3d 39 9b 2e bd 91 60 5e 3c de 80 13 3c
       0.050474577 -0.0426285 0.013572828 0.009002892
000030 33 b9 6b 3d 99 1e 60 be 00 db 84 3d 83 6f 9f bd
       0.057549667 -0.21886672 0.064870834 -0.07784941
000040 68 63 ff bd f2 b3 11 bd d1 4c 7c 3d 2f 9e 7a bc
       -0.12470132 -0.035572 0.061596695 -0.015296503
000050 12 35 a9 bd c1 90 bd 3d 07 25 5c 3b 6d d6 7d bd
       -0.082620755 0.09256125 0.0033591406 -0.06197207
000060 e1 5d 85 3d 4b f8 2e be 93 8f a3 bc 70 d5 e9 3d
       0.065120466 -0.17086904 -0.019965922 0.11417663
000070 a1 f3 26 3e 3c 9f 2d bd d2 6c 3b be 5f f1 2e bc
       0.16303875 -0.042388186 -0.1830323 -0.010677665
000080 66 14 e9 bd 92 d1 18 be 33 b7 c1 3d 1f 5e 30 3d
       -0.11380844 -0.14923695 0.094587706 0.04305851
000090 d8 a0 b2 bc f8 82 9f bd de c8 15 bd 02 c4 89 bd
       -0.021805212 -0.07788652 -0.036568515 -0.06726839
0000a0 1f 74 c8 3c 44 82 2d bc df 98 25 bb 59 5a 05 3e
       0.024469433 -0.01059014 -0.002526812 0.13022746
0000b0 93 ef 94 3d bc 3f 6b be e7 1a 9c bc 66 d1 63 3c
       0.07272258 -0.22973531 -0.019055797 0.013904905
0000c0 44 41 18 be 94 14 d5 bb 4b 24 61 3e 60 ba bc bd
       -0.14868647 -0.0065026972 0.21986501 -0.09215236
0000d0 07 cf 7b bd 4a 4d f0 3c 2a 57 83 3c 70 ae 5a bc
       -0.061476734 0.02933373 0.016032774 -0.013347253
0000e0 99 02 b6 bc 54 9a 69 bd 20 64 56 3d a7 1a ea 3c
       -0.022218036 -0.057031944 0.05234158 0.028577162
0000f0 d6 aa ae 3d b9 fc c6 bc eb 9d f2 bc 38 70 df 3d
       0.08528678 -0.02429043 -0.029616317 0.10910076
000100 6c ed 15 3a 4d 77 15 be 43 ba 38 3d 12 e8 21 3d
       0.00057192775 -0.14596291 0.045099508 0.03952796
000110 c8 8a a2 bd 86 3c 2c 3a 9d 61 80 3c 34 59 49 bd
       -0.07936627 0.0006570298 0.015671546 -0.049157336
000120 4a 9c 81 3d 9d 4d 72 bd 9d 7e 1d 3a 59 cc ca bc
       0.06328638 -0.05915605 0.00060079416 -0.024755644
000130 87 b4 cb bd cd ec 60 be 3d eb ce bc 04 89 82 3d
       -0.09946542 -0.21965332 -0.025258655 0.0637379
000140 19 b3 e0 bd ab 5c 1d 3c 8d 89 0d 3e 6b dc b9 3d
       -0.1097166 0.009604613 0.13822003 0.090752445
000150 54 70 fa bc ee e4 a9 bc 8e 6c ed 38 87 75 8a 3d
       -0.03057114 -0.020739045 0.000113212605 0.06760698
000160 fc c0 99 bc ff 87 31 3d ff 47 3b 3d 05 30 36 bd
       -0.01876878 0.043342587 0.045722958 -0.04447939
000170 d4 54 87 3e fe 8b f6 bc ad b8 e1 bc 95 c7 55 3c
       0.26431906 -0.03009605 -0.02755388 0.013048072
000180 25 ac 30 3e b7 3a 54 bd b6 6d 31 3c 7a 2b e9 3d
       0.17253168 -0.051813807 0.01082938 0.113852456
000190 8f 00 7e bb a0 8b 38 3d 79 e3 24 3d c9 7c db bc
       -0.0038757657 0.04505503 0.040255997 -0.0267929
0001a0 a8 64 3f bc 12 19 33 3d ad 67 0a bd ef f9 99 3c
       -0.011681713 0.04372508 -0.03379028 0.018795935
0001b0 ca 20 83 bd ec dd 51 be ab e2 c1 3c 26 9b 7d bd
       -0.064027384 -0.20494813 0.023667654 -0.06191554
0001c0 98 42 5b be 18 fd a2 bd 52 7c d9 3d 12 c5 d3 bd
       -0.21412122 -0.0795843 0.10619415 -0.103403226
0001d0 e5 80 01 be 50 3f 93 3d 15 2a 86 bc 7d f6 29 be
       -0.12646826 0.0718981 -0.016377488 -0.16597934
0001e0 65 52 06 bd 58 8d b1 3d 83 e5 1c 3e 7d 87 fc 3d
       -0.03279342 0.08669537 0.15321927 0.1233053
0001f0 4d 92 63 3e 6f 50 40 3d 7d 94 81 3c 7d aa 9e 3d
       0.22223778 0.046951707 0.015817875 0.07747362
000200 81 b3 1e bc bc dd bf bd 3a d6 25 3e 0e 5e 44 be
       -0.009686352 -0.09368464 0.16195002 -0.19176504
000210 88 38 74 3b 77 c2 65 3d b3 18 37 3d df 2a b3 bb
       0.003726514 0.05609366 0.04470129 -0.005467757
000220 a6 6a 3c 3d 9b 45 50 3c e6 0f 8e bc 6f 30 0f be
       0.046000145 0.012711908 -0.017341565 -0.1398332
000230 bb 93 32 be 2f 28 41 be bf 1d 3d bd bc d6 86 3c
       -0.17439167 -0.18862985 -0.046170946 0.016459815
000240 70 ac f9 bd a5 4c b0 bc 05 25 90 3d 1e b2 20 3e
       -0.12191093 -0.021520922 0.07038311 0.15692946
000250 b7 11 b1 bd 23 19 0d 3e de f4 3d 3c 2f 51 df bc
       -0.08645957 0.1377912 0.011594025 -0.027260391
000260 50 4f 18 bd d2 26 58 bd cd 8d 56 3d ec f0 09 3c
       -0.037185013 -0.052771397 0.052381326 0.008419257
000270 c9 a4 42 3e ae 82 92 bc 7e 37 5f bd ff e8 f1 3c
       0.19008173 -0.017884579 -0.05449628 0.029530047
000280 9c e3 59 3b 42 ec 6e be 8b 78 32 3e a5 8b 29 be
       0.0033247238 -0.23332313 0.17428796 -0.16557176
000290 94 23 3c 3d 18 1d 0f 3c f5 dc d8 bc f8 c9 d8 bc
       0.045932367 0.008734964 -0.026472548 -0.026463494
0002a0 f5 0a 9a 3a b9 6a 0e be 58 b8 01 3c 2a cd e4 3d
       0.0011752533 -0.13907899 0.007917486 0.111719444
0002b0 5a 85 81 bd 77 cc 7b be 4b 3b 4a bd fb 9a 26 bd
       -0.06324263 -0.24589716 -0.049372952 -0.040675145
0002c0 5a 8d 99 bb 43 43 af bd 1c e5 01 3e 48 ea 81 bc
       -0.00468604 -0.08557751 0.12685055 -0.015858784
0002d0 3f 66 9c bd 17 c6 96 bb 0d 66 0e bd ec 83 9d bd
       -0.076366894 -0.004601251 -0.034765292 -0.07691178
0002e0 0d a8 2b bc 76 d5 35 3d 2d c0 b7 bd b9 21 2c be
       -0.010477078 0.044393025 -0.089722015 -0.16809739
0002f0 1c 62 e2 3d b0 5d 7b bd 7f e2 e6 bd 5d 8b 74 3d
       0.11053869 -0.061368644 -0.112736695 0.05970322
000300 08 a8 63 bd 1d 3e c6 bd 15 fb b8 bd bc 84 25 3d
       -0.05558017 -0.09679816 -0.09032265 0.04040979
000310 72 ed fa 3c c0 6e 17 3d c8 4a 5e 3d 74 1f 6f 3d
       0.0306308 0.036970854 0.054270536 0.058379605
000320 49 a4 b2 bd 2c 9d f3 3d f7 30 80 bd d0 df 41 3e
       -0.08722741 0.118952125 -0.06259339 0.18933034
000330 a2 f8 28 3e f4 05 48 be 65 a0 85 bd c1 7e 67 bb
       0.16501096 -0.19533521 -0.065247335 -0.0035323354
000340 2e e6 b9 bd 55 86 d2 bd cb 7f 7c 3d 4e e1 3d 3d
       -0.090771064 -0.10279528 0.06164531 0.046357445
000350 7e 9a 07 be 3a 76 68 bd 8e ed 52 3c 4e 3b 03 3d
       -0.13242528 -0.056753375 0.01287402 0.03203898
000360 6a f4 23 bc bd 75 55 3d 3f 29 18 3e 71 60 c1 3c
       -0.010007003 0.052114237 0.14859484 0.023605557
000370 a1 a7 27 3e 18 0f 07 bd 8d 6c 06 be 98 3b 05 3e
       0.16372539 -0.03297338 -0.13127346 0.13011014
000380 9e 6c ff 3d 1a 9f 31 bc 51 38 11 3d 18 29 3a 3d
       0.12471889 -0.010841155 0.035454098 0.045449346
000390 db a3 f7 bc 9a 9d c3 3b e3 a9 b3 3d 53 c9 e9 3c
       -0.0302295 0.0059697153 0.08772638 0.028538382
0003a0 cf 54 de 3c ec ec 9a 3d 51 2b 0d bd ef 0a 34 3d
       0.02714005 0.075647205 -0.034465138 0.04395574
0003b0 8e 59 3e 3b 6e db 63 be ad 06 bf bc e4 47 0d 3d
       0.0029045078 -0.22251675 -0.023318613 0.03449239
0003c0 b3 ad 17 be f9 78 cc bd 3a 21 8f 3e 98 84 2a 3e
       -0.14812355 -0.09984011 0.27955037 0.16652143
0003d0 b3 3d a2 3c 05 ad a3 3d 2b c4 04 bd 9f 9d 17 3e
       0.019804811 0.07991985 -0.032413643 0.14806221
0003e0 58 fa 54 bd e7 c8 10 3d 93 4a 34 3e e0 da 84 3d
       -0.05199656 0.035347845 0.17606573 0.064870596
0003f0 61 b7 a0 3e bb bb 5f bd 43 5d d1 bc a7 86 7d bc
       0.31389907 -0.054622393 -0.025557166 -0.015473998

decoder.net.2.bias f4 [64]
000000 eb fb 7d 3d 87 2e 0f 3d e4 8e 65 3c 34 95 b6 bc
       0.062007826 0.03495648 0.014011119 -0.022287942
000010 40 20 b2 3c 04 a5 9f 3d 98 0d d5 38 39 43 98 bd
       0.021743894 0.07795146 0.000101591635 -0.07434697
000020 79 e9 1b bd 3c 4b 4f 3d 5f f4 ed bb 29 04 af bc
       -0.038064454 0.05060886 -0.0072617973 -0.021364288
000030 12 17 07 3d 7c 26 67 bd dc 61 00 3e 14 74 c2 3b
       0.032980986 -0.056433186 0.1253733 0.0059342477
000040 e4 46 89 3d 6d 43 b8 3a fd 89 98 3d be 66 c1 ba
       0.067029744 0.001405818 0.07448194 -0.0014755351
000050 e9 eb 85 3c fb 64 6f 3d 84 ea a3 bd 24 75 da bd
       0.016347842 0.05844591 -0.08003715 -0.10666874
000060 29 30 51 3d 7b 40 25 3d e9 fa 29 3e c0 a7 3c bb
       0.05107132 0.040344696 0.16599621 -0.002878651
000070 db 6e 15 bd 4a 63 c2 bc 0e e8 a1 3d ca a0 f6 bb
       -0.036482673 -0.023728985 0.07905589 -0.007526492
000080 bc 27 3f bd 8c 72 de bc c1 65 be 3d 06 45 72 3d
       -0.046668753 -0.02715423 0.09296752 0.059147857
000090 e8 2a 1e 3c 16 83 de bc 05 cc ee bd 6c 70 ce bc
       0.009653784 -0.027162116 -0.116600074 -0.025200091
0000a0 d5 12 9d bd b2 6f d0 bd b8 da a5 bc 62 e1 76 bc
       -0.076696075 -0.10177554 -0.020245895 -0.015068384
0000b0 c7 24 05 bd 42 ca b6 3c ac f9 0d 3e b2 5a a9 3b
       -0.032505777 0.02231324 0.13864774 0.0051682824
0000c0 9c a8 a2 3d 0a 41 33 3d 13 48 5e 3d 36 ed 62 bd
       0.07942316 0.043763198 0.054267954 -0.055402003
0000d0 cf 23 0e bd e6 ff 1d 3d dc fc 3a 3d 5a fd d7 bb
       -0.03470212 0.038574122 0.0456513 -0.006591481
0000e0 fe 8b 90 3d d5 be d5 bc a6 ae ce 3d c8 7c ba 3c
       0.070579514 -0.026091972 0.10091905 0.022764578
0000f0 a3 ad 8e 3d 75 2e 77 bd 95 ad 52 3a 5f 9b 85 bc
       0.06966712 -0.06034704 0.000803673 -0.016309438

exp_avg f4 [32, 64]
000000 97 c5 e8 b3 95 25 a9 b1 52 2f af 34 ce a2 12 b4
       -1.0839283e-07 -4.92282e-09 3.263072e-07 -1.3656538e-07
000010 f9 a1 33 b4 a9 89 95 33 7b 29 45 b4 1b d6 90 b3
       -1.67296e-07 6.9633934e-08 -1.8362145e-07 -6.744468e-08
000020 5f 73 8e b3 09 ac 7c b4 c3 ee 86 b4 3c 98 51 b4
       -6.633376e-08 -2.3531915e-07 -2.5133167e-07 -1.9520024e-07
000030 8c 65 13 b4 b7 0c cd b4 6c 08 d1 b4 b7 fd 20 33
       -1.3727384e-07 -3.8193477e-07 -3.893541e-07 3.7483655e-08
000040 57 42 72 b3 d0 70 88 b3 9a cf 6d b4 71 9e c4 34
       -5.640535e-08 -6.353514e-08 -2.214787e-07 3.6623126e-07
000050 03 e3 d4 34 85 69 f5 34 b6 56 b2 b4 13 5b ab 33
       3.965325e-07 4.5711582e-07 -3.3218174e-07 7.979374e-08
000060 c3 10 7d b4 10 6f 87 b4 e6 fa 35 b5 b0 37 40 34
       -2.3568559e-07 -2.5226518e-07 -6.779286e-07 1.7901652e-07
000070 cf 41 7a 34 5f 33 9a 34 95 73 7b b3 03 b2 19 b4
       2.3307005e-07 2.8722113e-07 -5.8545613e-08 -1.4313996e-07
000080 46 64 8a 34 b1 76 16 33 f9 23 6d 32 7a af 41 b2
       2.5777462e-07 3.5032546e-08 1.3803395e-08 -1.1273977e-08
000090 e4 dd a1 34 cd 68 20 b4 0b b9 44 b5 c5 6d fd b3
       3.0150034e-07 -1.4939287e-07 -7.328496e-07 -1.18011975e-07
0000a0 29 ea d9 34 83 f6 6f 35 59 06 d2 34 25 e0 89 34
       4.0589774e-07 8.939316e-07 3.9120167e-07 2.5681325e-07
0000b0 45 48 34 33 83 fe 0e b4 54 db c4 b4 e0 ee ef b3
       4.1975245e-08 -1.3317371e-07 -3.6667427e-07 -1.1172756e-07
0000c0 44 84 38 b4 fc 80 2b 33 58 dd cf b3 c0 61 d3 33
       -1.7184453e-07 3.993135e-08 -9.679451e-08 9.843234e-08
0000d0 22 b7 07 34 10 fb b6 b4 58 91 67 b4 97 22 87 34
       1.2639478e-07 -3.4082814e-07 -2.1566427e-07 2.5170877e-07
0000e0 5a f2 8b b4 0a 5a 97 34 c5 ea b4 b4 78 f4 09 b4
       -2.6067102e-07 2.8191454e-07 -3.369843e-07 -1.2848056e-07
0000f0 8d bd a3 b4 54 16 da 33 61 60 88 b3 a6 6a 70 b2
       -3.0499032e-07 1.01554775e-07 -6.350525e-08 -1.3994088e-08
000100 b5 db c2 b4 ce 4e 56 b5 61 f1 50 b3 53 07 d6 b4
       -3.6295174e-07 -7.983589e-07 -4.8648307e-08 -3.9865935e-07
000110 7b 0e 9c 34 a6 f8 b7 b4 60 ed de b4 c7 ad 54 b5
       2.90678e-07 -3.4267322e-07 -4.1523435e-07 -7.9229034e-07
000120 a5 77 1e b5 f8 16 94 b2 b1 cf 85 34 55 00 11 b4
       -5.903369e-07 -1.7239913e-08 2.4924296e-07 -1.3504298e-07
000130 0d 2d dc b2 37 76 1a b5 f3 c2 41 b4 70 2e b0 b4
       -2.5631858e-08 -5.7541496e-07 -1.8045448e-07 -3.2816342e-07
000140 39 3b 48 b4 23 27 25 b3 b0 3a 33 34 fb 2b 81 b3
       -1.8647997e-07 -3.845265e-08 1.6692024e-07 -6.0150306e-08
000150 d7 be 0f b4 eb bb 84 34 0b 1a d7 b4 f9 4f 84 b3
       -1.338734e-07 2.4723644e-07 -4.006582e-07 -6.161276e-08
000160 4c 31 55 b5 b7 32 41 b5 09 7d 3b b5 d9 bb 17 b5
       -7.942042e-07 -7.19719e-07 -6.984488e-07 -5.652524e-07
000170 0d 95 92 b2 d6 20 73 34 4b 65 9e b3 ae 99 83 34
       -1.7064417e-08 2.2643084e-07 -7.3758734e-08 2.4512468e-07
000180 50 ad e0 34 51 1a 9f 34 b4 45 8c 35 0d 97 9e b5
       4.1849353e-07 2.9635206e-07 1.0451099e-06 -1.1815879e-06
000190 9e 75 42 b6 6f c6 8c b5 89 ba 7a 35 24 ef f3 34
       -2.8976715e-06 -1.0488565e-06 9.34037e-07 4.5436275e-07
0001a0 63 f6 28 35 9f f8 ac 34 b9 76 ef 33 e6 07 94 b4
       6.2943417e-07 3.2218392e-07 1.11509e-07 -2.7572895e-07
0001b0 a0 49 9e b4 f9 26 7a b5 85 90 8c b5 3f 2e b4 b3
       -2.9483363e-07 -9.318897e-07 -1.0472874e-06 -8.390315e-08
0001c0 43 ac 03 b5 76 a5 59 b4 dd e3 49 34 c9 98 96 b4
       -4.9051977e-07 -2.0269894e-07 1.880248e-07 -2.8050843e-07
0001d0 72 69 9b b4 2f 43 8b b2 2e fb f9 33 c3 42 5d b4
       -2.894772e-07 -1.6212281e-08 1.16406554e-07 -2.0606517e-07
0001e0 46 f2 b9 b4 58 ae 11 b1 4d 20 43 b4 3a b8 62 34
       -3.4635212e-07 -2.119938e-09 -1.8172541e-07 2.1114911e-07
0001f0 c9 f0 86 b4 ae 65 0c b4 0d 60 3f b5 32 fa 94 b4
       -2.513464e-07 -1.3075507e-07 -7.1292817e-07 -2.774919e-07
000200 f9 8f cd b2 4a 10 d0 b3 d0 78 13 b5 5c 04 5e b5
       -2.3930612e-08 -9.688718e-08 -5.493757e-07 -8.270779e-07
000210 77 26 91 b2 40 70 4e b5 f2 10 a5 b4 cb c9 83 b4
       -1.6897713e-08 -7.6904325e-07 -3.0745974e-07 -2.4547475e-07
000220 d2 7b 13 b5 70 bc af b4 6b 25 6c b5 10 a4 cb b4
       -5.494195e-07 -3.2733396e-07 -8.79713e-07 -3.7931068e-07
000230 b1 1d 82 b4 a4 f8 ca b4 2c df f8 b4 2b 85 53 b4
       -2.423599e-07 -3.7806342e-07 -4.635598e-07 -1.9699353e-07
000240 14 81 7e b5 a0 ed 3c b5 79 d9 21 b5 cf 07 24 b5
       -9.4810207e-07 -7.038125e-07 -6.029364e-07 -6.1106124e-07
000250 de c5 b7 b4 8e 0e 22 b5 ee 65 9a 33 c6 8e ae b4
       -3.4230374e-07 -6.037088e-07 7.189725e-08 -3.2513907e-07
000260 70 6c 04 b5 6e 0f 3e b4 ec cc 84 34 b7 e8 d4 34
       -4.933163e-07 -1.7700742e-07 2.4736016e-07 3.96574e-07
000270 d0 5a 6d 35 fe 16 2c 35 81 4b 4b 35 fc a5 8b 35
       8.842153e-07 6.410845e-07 7.5733266e-07 1.0404615e-06
000280 b6 fb 20 34 ca 2f c1 b5 83 b7 17 b6 e4 53 0b b6
       1.4992733e-07 -1.4393529e-06 -2.2607571e-06 -2.0761445e-06
000290 8a 58 03 b5 58 03 53 b6 0b be 60 b6 22 89 5e b5
       -4.8930144e-07 -3.1443396e-06 -3.348922e-06 -8.2901e-07
0002a0 ca 81 ac 35 65 f0 00 36 11 b6 aa 35 11 10 95 35
       1.2852772e-06 1.9213414e-06 1.2718975e-06 1.1106041e-06
0002b0 b4 78 31 35 15 d9 4b 34 55 6d 58 b4 61 5d 98 b4
       6.6113284e-07 1.8984822e-07 -2.0156342e-07 -2.8380148e-07
0002c0 05 d2 0c b5 47 17 46 b5 c8 f8 64 b5 ab c9 71 b5
       -5.245968e-07 -7.379462e-07 -8.5298643e-07 -9.007296e-07
0002d0 0d c6 bc b4 bc 5e 45 b5 58 10 15 b5 7f a1 fd b4
       -3.516183e-07 -7.3526076e-07 -5.553061e-07 -4.7242426e-07
0002e0 9f 8d a1 b3 23 47 99 b5 1d 19 35 b5 da 8d 20 b5
       -7.5229075e-08 -1.1420092e-06 -6.74643e-07 -5.9811066e-07
0002f0 33 8a 0d b5 89 92 48 b5 72 bc 98 b4 ec 9e a4 33
       -5.27277e-07 -7.471904e-07 -2.8449318e-07 7.665753e-08
000300 6d b4 19 35 30 19 fa 34 d7 2a aa 34 18 78 82 34
       5.7259496e-07 4.6584455e-07 3.1696138e-07 2.4301767e-07
000310 18 f7 45 35 56 61 8b 34 d6 4e 09 35 a2 8e 11 35
       7.374779e-07 2.596159e-07 5.11512e-07 5.422427e-07
000320 2e a8 ad 34 74 11 ae 34 1b 51 da 34 79 b3 1e 35
       3.2346128e-07 3.2422724e-07 4.0664676e-07 5.9120754e-07
000330 13 de c4 34 e3 30 d7 34 cc 3b 09 35 1f 25 3d 35
       3.6669425e-07 4.008244e-07 5.1123493e-07 7.0462005e-07
000340 1b 8e 08 35 05 b0 c4 34 81 cd 08 35 b7 53 e2 34
       5.087074e-07 3.6635916e-07 5.0962996e-07 4.215669e-07
000350 a4 26 62 34 0c 4e a9 33 59 cd 83 34 fc f8 a3 34
       2.1061948e-07 7.8838724e-08 2.4550062e-07 3.0542276e-07
000360 f4 d5 17 b5 0b 31 1b 35 fc 61 e0 34 f3 c5 83 35
       -5.6563226e-07 5.7813367e-07 4.1794544e-07 9.817871e-07
000370 f2 d4 5b 35 79 27 38 35 0e 90 1c 35 46 9a 9a 35
       8.1893734e-07 6.860278e-07 5.8324156e-07 1.1518794e-06
000380 44 62 4a 35 08 3d 03 35 3e 2e 3e 33 36 ee c9 b3
       7.539386e-07 4.8890115e-07 4.427988e-08 -9.403122e-08
000390 61 47 12 b5 13 c9 2d b4 4a 08 94 35 05 76 9d 35
       -5.449311e-07 -1.6185031e-07 1.1029272e-06 1.173176e-06
0003a0 c9 f5 ea 34 3f 0d 53 35 48 59 69 35 4a 48 20 35
       4.376473e-07 7.86229e-07 8.6929185e-07 5.970984e-07
0003b0 e7 4a fe 34 0b f2 85 34 6b be 3d 35 a1 8d ce 34
       4.7365685e-07 2.494929e-07 7.068508e-07 3.847354e-07
0003c0 e6 44 ed 34 a7 ee 00 35 82 a7 2b 35 16 8b 11 35
       4.419482e-07 4.8031e-07 6.394622e-07 5.4219106e-07
0003d0 9d c3 ff 34 bf d0 47 35 92 46 c7 34 6e e5 1d 35
       4.763978e-07 7.443704e-07 3.7117985e-07 5.882092e-07
0003e0 5b 61 1c 35 f5 86 fe 34 69 fe 12 35 1c 2f 6f b2
       5.82562e-07 4.740938e-07 5.4759454e-07 -1.3922342e-08
0003f0 00 bf 4b 34 41 b2 fb 34 4e 73 f6 34 4a cb b4 34
       1.8975334e-07 4.688209e-07 4.5904966e-07 3.3675525e-07

exp_avg_sq f4 [32, 64]
000000 79 80 a5 2c 40 61 a9 2c a7 d4 a9 2c 58 ec b6 2c
       4.7038454e-12 4.814066e-12 4.826878e-12 5.1989905e-12
000010 b9 66 aa 2c 01 de a7 2c 25 4d b5 2c 94 84 aa 2c
       4.843095e-12 4.771073e-12 5.152894e-12 4.8464097e-12
000020 ca ee a8 2c 55 24 b0 2c d9 df a3 2c a5 18 ab 2c
       4.801358e-12 5.0062545e-12 4.6575907e-12 4.8628484e-12
000030 3a 9c a0 2c a2 21 9f 2c cf 7d ad 2c cf 36 98 2c
       4.564818e-12 4.522786e-12 4.9309233e-12 4.326185e-12
000040 83 29 a5 2c 2d 8f b1 2c 4d 48 ba 2c 40 bd d1 2c
       4.6941908e-12 5.0465383e-12 5.294465e-12 5.9611482e-12
000050 ce 8d e2 2c fc e0 06 2d 6f 98 22 2d ed d2 4f 2d
       6.43905e-12 7.666975e-12 9.242481e-12 1.1813423e-11
000060 be 24 96 2d 5f 1d ba 2d 34 c4 be 2d bc c3 b0 2d
       1.7069342e-11 2.1158795e-11 2.168763e-11 2.0095807e-11
000070 f3 01 9f 2d 98 20 5e 2d ba fe 3c 2d 4d e3 3d 2d
       1.8077073e-11 1.2626476e-11 1.0743123e-11 1.0793877e-11
000080 a1 cf 42 2d 0d 9f 5f 2d 57 42 91 2d 96 df a4 2d
       1.1073726e-11 1.2711399e-11 1.6514052e-11 1.8743933e-11
000090 ad a6 96 2d bf d0 82 2d 64 e0 4b 2d 24 06 2d 2d
       1.7127045e-11 1.487199e-11 1.1589039e-11 9.835275e-12
0000a0 08 e0 19 2d 0d 1d 11 2d b7 6d 02 2d 65 a4 d8 2c
       8.746788e-12 8.248746e-12 7.414006e-12 6.1573407e-12
0000b0 22 88 bf 2c b3 bc b1 2c 0d 86 a5 2c c8 17 9f 2c
       5.4436603e-12 5.0515924e-12 4.7044647e-12 4.521692e-12
0000c0 e8 b7 93 2c 44 32 96 2c bf fb 9a 2c bd e8 8e 2c
       4.198409e-12 4.268837e-12 4.4048927e-12 4.061722e-12
0000d0 02 22 9f 2c 18 c7 98 2c b0 03 a8 2c d4 99 9f 2c
       4.5228274e-12 4.3422037e-12 4.7752566e-12 4.53613e-12
0000e0 42 eb a0 2c 74 a8 9f 2c ea ef a2 2c 64 57 a2 2c
       4.5735924e-12 4.537754e-12 4.6309527e-12 4.6140192e-12
0000f0 92 5d a5 2c c0 d7 ae 2c b1 54 ab 2c bc 1d a7 2c
       4.6999704e-12 4.9693305e-12 4.869515e-12 4.7497267e-12
000100 35 af 8a 2c 22 bd 88 2c a2 40 85 2c fc b8 9f 2c
       3.941648e-12 3.8863504e-12 3.787263e-12 4.539589e-12
000110 8b 8a 98 2c 03 18 91 2c 89 b1 8f 2c 58 a0 8f 2c
       4.335481e-12 4.1238137e-12 4.084015e-12 4.082106e-12
000120 d7 c7 88 2c 72 62 8a 2c 9a 21 9b 2c ee ad 8c 2c
       3.887539e-12 3.9331255e-12 4.4090955e-12 3.9983494e-12
000130 84 60 99 2c 37 fa 91 2c b0 aa a4 2c 11 fe 8e 2c
       4.359237e-12 4.1489273e-12 4.6801105e-12 4.0640898e-12
000140 31 72 81 2c 83 83 8f 2c 2b a8 92 2c f4 83 91 2c
       3.6790783e-12 4.078905e-12 4.16824e-12 4.1357976e-12
000150 bb 83 a3 2c 8d 75 ca 2c 36 b7 eb 2c 84 0d 0a 2d
       4.6473637e-12 5.754236e-12 6.699442e-12 7.847393e-12
000160 e9 3e 35 2d f6 b5 81 2d 61 0c b5 2d 88 87 df 2d
       1.0302628e-11 1.4746409e-11 2.0582815e-11 2.5412353e-11
000170 1e 07 da 2d ec 68 d2 2d 87 5f aa 2d a5 fc 5e 2d
       2.4786891e-11 2.392083e-11 1.9369185e-11 1.2675337e-11
000180 6c c7 3b 2d e4 c7 74 2d 8f be 86 2d 99 cb 64 2d
       1.0674e-11 1.3914179e-11 1.5318661e-11 1.3005507e-11
000190 51 df 52 2d 2f 79 3c 2d 42 51 21 2d 4c 8c d7 2c
       1.1986704e-11 1.0713471e-11 9.169833e-12 6.1262436e-12
0001a0 70 ff c0 2c 2d 09 bb 2c d3 98 c8 2c bd fc d7 2c
       5.4853275e-12 5.3158784e-12 5.7013088e-12 6.138727e-12
0001b0 dc 68 aa 2c 1e ec b3 2c c2 de b2 2c 49 fb a1 2c
       4.8433323e-12 5.1137003e-12 5.0837954e-12 4.6037935e-12
0001c0 bd cc 89 2c a7 ad 81 2c d6 a1 89 2c 7d ad 84 2c
       3.9165047e-12 3.68568e-12 3.9117416e-12 3.7709267e-12
0001d0 39 90 8f 2c 86 a0 85 2c 9f b0 85 2c d4 ba 8f 2c
       4.0803164e-12 3.797909e-12 3.7996962e-12 4.0850465e-12
0001e0 f6 dd 87 2c 95 44 87 2c 07 e8 8b 2c a5 2a 8c 2c
       3.8615734e-12 3.844545e-12 3.976378e-12 3.983774e-12
0001f0 50 fa 88 2c 00 e2 90 2c 02 0f a2 2c 5b d4 a0 2c
       3.8931428e-12 4.117817e-12 4.605983e-12 4.5710497e-12
000200 d0 70 23 2d 41 68 1e 2d 0f f3 0d 2d be f5 1c 2d
       9.290527e-12 9.004409e-12 8.068892e-12 8.922139e-12
000210 44 a8 25 2d d2 f5 18 2d 8b 31 28 2d a2 73 22 2d
       9.416527e-12 8.694783e-12 9.560695e-12 9.2343095e-12
000220 f3 a6 2d 2d 93 65 20 2d 73 7b 21 2d 14 f6 20 2d
       9.870982e-12 9.117501e-12 9.179202e-12 9.149587e-12
000230 18 5c 1a 2d 07 69 1d 2d ef e4 30 2d 2b ac 23 2d
       8.774335e-12 8.9477375e-12 1.0055275e-11 9.303706e-12
000240 24 5f 2e 2d a4 5e 33 2d 38 f5 39 2d ef c6 3a 2d
       9.91188e-12 1.0195986e-11 1.0570482e-11 1.0617048e-11
000250 a4 f3 5b 2d aa 0b 75 2d b5 43 8c 2d 7b d3 84 2d
       1.2502808e-11 1.39292276e-11 1.5946225e-11 1.5100579e-11
000260 fe a3 8e 2d 2b ca cd 2d 34 b5 4d 2e ec f3 5f 2e
       1.6216358e-11 2.3395582e-11 4.6772544e-11 5.0920976e-11
000270 87 04 39 2e c6 92 19 2e 91 28 3e 2e b1 23 42 2e
       4.206815e-11 3.4918533e-11 4.323703e-11 4.4142193e-11
000280 ad 2a 43 2e a5 b2 2c 2e 52 b1 24 2e 75 65 13 2e
       4.437577e-11 3.926694e-11 3.7446775e-11 3.3514042e-11
000290 55 4f db 2d c3 c5 c5 2d 2a ef ae 2d ed e0 8e 2d
       2.4932648e-11 2.2484131e-11 1.988772e-11 1.6243418e-11
0002a0 76 c5 81 2d 7a 07 69 2d 60 2f 5e 2d 48 cc 3e 2d
       1.4753292e-11 1.3246177e-11 1.2629758e-11 1.0845609e-11
0002b0 04 a8 3e 2d 2f 4a 2e 2d 1e ca 21 2d de 0e 19 2d
       1.08375565e-11 9.907227e-12 9.1966695e-12 8.700344e-12
0002c0 a6 a6 1a 2d d0 d1 1f 2d c4 8d 19 2d 49 e1 1b 2d
       8.79089e-12 9.084691e-12 8.728521e-12 8.860753e-12
0002d0 c6 94 26 2d 38 7c 14 2d 63 98 1b 2d 05 c6 18 2d
       9.469042e-12 8.440408e-12 8.844567e-12 8.684169e-12
0002e0 50 bb 1c 2d d5 de 18 2d 43 51 24 2d 22 fd 1d 2d
       8.909165e-12 8.689678e-12 9.340364e-12 8.9806235e-12
0002f0 34 8d 12 2d 49 b2 1b 2d c5 e5 22 2d d3 a2 26 2d
       8.3304925e-12 8.850317e-12 9.259653e-12 9.472162e-12
000300 e8 45 4d 2b d9 80 5a 2b 47 6e 49 2b b6 19 72 2b
       7.2927645e-13 7.762797e-13 7.1562586e-13 8.601135e-13
000310 c8 d6 6c 2b 2a a4 53 2b 66 d7 6c 2b c1 3b 5c 2b
       8.414211e-13 7.519008e-13 8.414297e-13 7.8242626e-13
000320 69 ad 58 2b bd 9a 7e 2b 03 96 6b 2b bd fb 62 2b
       7.697927e-13 9.045367e-13 8.3696955e-13 8.0640686e-13
000330 40 1f 67 2b ca 6c 33 2b 44 c0 45 2b cb e2 67 2b
       8.2111054e-13 6.374455e-13 7.025528e-13 8.2382424e-13
000340 e1 ae 87 2b 51 17 bd 2b 3c 0d d2 2b bb 79 ce 2b
       9.640866e-13 1.3435729e-12 1.4925071e-12 1.4670967e-12
000350 66 fc 16 2c c1 45 13 2c d9 df 13 2c 05 3f fb 2b
       2.1456391e-12 2.0928678e-12 2.1014217e-12 1.7852114e-12
000360 6c 30 06 2c 29 06 16 2c ec b7 72 2c c3 69 c1 2c
       1.9069425e-12 2.1319702e-12 3.4492366e-12 5.497132e-12
000370 f1 d4 97 2c 8b e1 dc 2b da 7d 90 2c 88 3a e8 2c
       4.3153194e-12 1.5694541e-12 4.1066985e-12 6.600335e-12
000380 90 b9 e0 2c e1 c0 8f 2c d0 c0 68 2c 20 54 30 2c
       6.3870645e-12 4.0857183e-12 3.3076215e-12 2.5057803e-12
000390 f0 5c 07 2c 8d ef bf 2b ce 44 f4 2b e8 d9 db 2b
       1.9236245e-12 1.3637855e-12 1.735634e-12 1.5621367e-12
0003a0 95 e1 a4 2b e6 cc 7d 2b ad 37 6f 2b 62 f1 81 2b
       1.1715512e-12 9.016801e-13 8.498712e-13 9.232998e-13
0003b0 1f ab 69 2b 62 80 81 2b 0f cd 83 2b 8f 5e 66 2b
       8.3015707e-13 9.201635e-13 9.365025e-13 8.184364e-13
0003c0 d1 d4 4e 2b d3 1d 71 2b 1e 5a 76 2b a8 02 59 2b
       7.3481244e-13 8.566179e-13 8.752182e-13 7.7097573e-13
0003d0 ce 19 82 2b 50 55 7d 2b 6b bf 3f 2b f0 da 57 2b
       9.244218e-13 9.000205e-13 6.8122477e-13 7.668718e-13
0003e0 3d 0a 41 2b ed 7c 6c 2b 7b 9a 6f 2b e4 38 82 2b
       6.858158e-13 8.401741e-13 8.512424e-13 9.252846e-13
0003f0 bd 3b 75 2b 42 e3 76 2b 56 bc 57 2b f2 1c 56 2b
       8.712439e-13 8.771214e-13 7.6644713e-13 7.606824e-13

exp_avg f4 [32]
000000 62 8d ea 35 d6 09 bd b6 3f 5f 15 38 bd d6 f9 35
       1.7475506e-06 -5.633784e-06 3.5613073e-05 1.8614443e-06
000010 bf 85 7d b7 7c c2 6a b7 15 92 cf b6 3e 31 42 b5
       -1.5111115e-05 -1.3992769e-05 -6.186087e-06 -7.234229e-07
000020 ef 8b cd 35 a7 98 3d 37 7f 49 a4 b6 88 51 6c b6
       1.5314416e-06 1.130082e-05 -4.896137e-06 -3.5214198e-06
000030 7a 06 b5 b7 d5 97 78 35 89 d6 cd b6 eb 4d 9c b6
       -2.1579897e-05 9.2608144e-07 -6.1344513e-06 -4.658233e-06
000040 de 2a 0b 36 ba 58 27 b7 ca 47 71 37 a9 1d b9 b6
       2.0737566e-06 -9.974634e-06 1.4381434e-05 -5.5168825e-06
000050 2a 27 6b 35 81 47 bb b5 10 6a 7b 37 76 16 3c b7
       8.7601313e-07 -1.3953396e-06 1.498546e-05 -1.1210903e-05
000060 8a f7 21 36 c5 0f 2c b6 19 2f 37 b6 be fe d2 35
       2.4134956e-06 -2.5639176e-06 -2.729654e-06 1.5720359e-06
000070 30 5a fb 36 1f 5f 19 b7 09 99 ef b6 e5 32 d5 37
       7.490882e-06 -9.141658e-06 -7.1405707e-06 2.5415278e-05

exp_avg_sq f4 [32]
000000 69 8f 61 30 15 61 4c 30 74 42 2a 31 95 05 17 2f
       8.205832e-10 7.435273e-10 2.477603e-09 1.3735353e-10
000010 68 48 10 31 a3 0d 90 31 2f 4e 01 30 1e 43 bf 31
       2.0995916e-09 4.192502e-09 4.704103e-10 5.566462e-09
000020 62 e3 9f 2f cc 90 01 31 d7 ca ef 30 62 32 b8 31
       2.9083497e-10 1.8854278e-09 1.7447189e-09 5.3608327e-09
000030 ba 1e aa 31 44 07 a6 30 95 bc 85 30 41 bb d4 30
       4.9511444e-09 1.2080155e-09 9.730622e-10 1.5478251e-09
000040 c0 a3 17 30 77 62 fc 30 1c 9b 77 31 4c 7d 21 30
       5.516618e-10 1.8363399e-09 3.60314e-09 5.8749516e-10
000050 12 f8 24 30 98 a0 54 2f 1d ef 09 31 de 8f e3 30
       6.001538e-10 1.9338342e-10 2.0072044e-09 1.6557313e-09
000060 c7 68 e8 2f b5 8c 74 30 35 33 e7 2f bd 21 ba 30
       4.2275003e-10 8.896664e-10 4.205504e-10 1.354287e-09
000070 ee dc c3 31 14 c3 68 30 81 2f 12 30 b5 48 e0 30
       5.7003637e-09 8.467833e-10 5.3182e-10 1.631881e-09

exp_avg f4 [5, 32]
000000 64 1f ce b4 03 fa b2 36 29 9c 4f b6 2c aa f4 35
       -3.839333e-07 5.3339186e-06 -3.09363e-06 1.8228943e-06
000010 c2 58 cb b6 27 e1 c3 33 2b 8d 53 b5 60 2d 89 b5
       -6.060204e-06 9.12135e-08 -7.880905e-07 -1.0220501e-06
000020 2c 8e 04 35 ae 71 a0 33 7a cb 0d b6 58 0d a7 b5
       4.938072e-07 7.471259e-08 -2.1129076e-06 -1.2446353e-06
000030 eb 42 9d b6 c3 64 e1 b3 4d f8 87 b6 9f de e0 35
       -4.686755e-06 -1.04957074e-07 -4.0522195e-06 1.6754092e-06
000040 c5 53 a4 b4 ad fd c7 b6 83 5d c2 b5 a9 24 0d 36
       -3.060833e-07 -5.960194e-06 -1.4481342e-06 2.1031976e-06
000050 e0 95 11 36 6b b3 6d b4 07 ac c3 35 b0 a1 9b b6
       2.1693922e-06 -2.2137617e-07 1.4578699e-06 -4.638183e-06
000060 59 4b ac 35 7a 98 b3 35 ee e4 bb b5 33 d7 93 b6
       1.2836928e-06 1.3380916e-06 -1.3999213e-06 -4.405994e-06
000070 41 20 ba b5 d0 f8 4a b6 a0 3d c4 35 df 27 7a 35
       -1.3867467e-06 -3.0245174e-06 1.4621073e-06 9.319028e-07
000080 d0 a8 f5 34 7a 40 bf b6 bd 1c 37 35 fe 7e 7c b5
       4.5757633e-07 -5.6997496e-06 6.821463e-07 -9.4062113e-07
000090 da af f5 36 e2 15 54 36 10 03 25 36 9d c7 af 36
       7.322041e-06 3.16032e-06 2.4588699e-06 5.2386445e-06
0000a0 b0 61 79 34 b4 94 cc b5 08 30 90 b6 0c c2 a8 36
       2.322547e-07 -1.5242463e-06 -4.297126e-06 5.02938e-06
0000b0 ac 8a ae b5 a0 3c 2c b5 70 74 93 b6 e7 35 2b b7
       -1.3004369e-06 -6.4163214e-07 -4.3944965e-06 -1.0204944e-05
0000c0 3f 90 6b b4 ed 70 82 b6 13 62 31 b4 14 23 c5 b6
       -2.1938557e-07 -3.887448e-06 -1.6520089e-07 -5.875141e-06
0000d0 26 aa 1b b6 0e a8 09 34 d8 49 25 b5 64 f7 8a 36
       -2.319584e-06 1.2820257e-07 -6.1574747e-07 4.1415205e-06
0000e0 a8 ab 8d 35 3d f8 e0 b5 4c 20 05 36 19 c0 09 b6
       1.0555277e-06 -1.6761547e-06 1.9837344e-06 -2.0526406e-06
0000f0 e5 2f ef b5 37 99 a3 36 40 a6 40 b6 65 00 03 b6
       -1.7820827e-06 4.875615e-06 -2.8707e-06 -1.952075e-06
000100 8b a8 b0 36 c4 3e 1e 35 c7 e5 20 36 65 2c b1 35
       5.2648297e-06 5.895092e-07 2.3975606e-06 1.3200448e-06
000110 a3 56 36 37 c7 13 12 37 9e a5 a7 36 dc c4 08 37
       1.0868217e-05 8.706883e-06 4.996268e-06 8.152067e-06
000120 09 ef ca 36 cd 95 92 b3 02 db 21 37 52 4e 4f 37
       6.0478965e-06 -6.8259034e-08 9.6473395e-06 1.2356397e-05
000130 db 6d 83 37 0b 9c 5a 36 95 96 e5 36 6b 2c 1d 37
       1.5667572e-05 3.257536e-06 6.842262e-06 9.368271e-06
000140 0a df 0e b5 05 52 6e 37 8e 84 a7 36 3a 03 c7 36
       -5.3223687e-07 1.4205002e-05 4.9924192e-06 5.931038e-06
000150 3c cd 8c 36 64 4b a6 b3 ee 08 81 b4 a5 d1 84 36
       4.1962176e-06 -7.743691e-08 -2.403462e-07 3.9583124e-06
000160 2b 47 19 36 2e 42 11 35 d6 62 3a 35 a6 95 ee 36
       2.2840202e-06 5.4113013e-07 6.9434225e-07 7.110374e-06
000170 ee 4f 86 37 c0 8d 17 37 e2 6d 16 35 2b df fa 36
       1.6011265e-05 9.033305e-06 5.6039255e-07 7.4765608e-06
000180 59 64 28 37 49 7d 15 37 5f 0e 38 b6 8c 04 9e b5
       1.0036944e-05 8.910262e-06 -2.7426502e-06 -1.1773241e-06
000190 28 fa 82 37 82 50 84 37 ea 79 20 37 01 52 d6 36
       1.5613696e-05 1.5773116e-05 9.5651285e-06 6.3872435e-06
0001a0 3f 87 70 35 ea 20 f5 36 ce 69 62 34 9f 63 87 37
       8.9603776e-07 7.3054007e-06 2.1086382e-07 1.6139644e-05
0001b0 df b8 90 37 99 65 6a b5 b2 3a b9 36 54 8e 09 37
       1.7252225e-05 -8.7319637e-07 5.5202627e-06 8.198975e-06
0001c0 cb a1 8a 34 e8 6f 04 37 96 7d 9c 36 62 a5 18 36
       2.5822223e-07 7.893868e-06 4.6637824e-06 2.274603e-06
0001d0 01 5a 3a 36 9e 84 5a 34 f3 6f b2 35 e2 3f c1 b5
       2.776855e-06 2.0351078e-07 1.3294615e-06 -1.4398213e-06
0001e0 72 54 63 36 9b d4 70 35 a2 08 b7 35 ad 93 4d 36
       3.387479e-06 8.971635e-07 1.3637075e-06 3.063334e-06
0001f0 98 4f 12 37 9c 37 54 37 92 33 61 37 8f 95 e6 35
       8.72081e-06 1.2649132e-05 1.3423052e-05 1.7179863e-06
000200 40 67 f4 36 d0 13 8d 36 1e 06 0e 37 48 f3 72 35
       7.2837865e-06 4.204434e-06 8.465284e-06 9.0506046e-07
000210 07 2a 46 37 ef 7c 3b 36 6a f8 89 34 71 9c fa 36
       1.1811505e-05 2.7937892e-06 2.5698984e-07 7.468793e-06
000220 d9 a8 c4 36 9a 9c 2f 36 3c 7e 3b 36 74 32 6d 36
       5.8609116e-06 2.6168186e-06 2.793865e-06 3.534512e-06
000230 ff d1 90 37 0a e4 55 36 43 67 99 37 e8 d2 84 37
       1.7263925e-05 3.187221e-06 1.8287106e-05 1.5833837e-05
000240 4e d6 17 35 f6 88 b6 36 85 6e 0c 37 48 f0 a3 36
       5.656374e-07 5.439967e-06 8.370383e-06 4.885751e-06
000250 33 88 52 36 ff df 99 34 2f 3e 6a 35 d5 41 35 36
       3.1371717e-06 2.866145e-07 8.726228e-07 2.700942e-06
000260 d7 4a bc 36 4b 79 25 b5 f7 72 9a 36 04 14 66 37
       5.611549e-06 -6.1643794e-07 4.6029413e-06 1.3713729e-05
000270 5f 90 56 37 9e 01 80 36 b4 8f 8d 36 86 1b dc 36
       1.2789008e-05 3.8148855e-06 4.2188567e-06 6.559715e-06
