models/lfblips/params.ckpt (torch, 66291 bytes, 24 tensors)

encoder.net.0.weight f4 [32, 64]
0	0xbc9bc3a9	-0.019014196
1	0x3caca0f5	0.021072844
2	0x39e003e3	0.00042727505
3	0xbd879a35	-0.066212095
4	0xbbb05d4c	-0.0053822156
5	0xbbd1cf88	-0.0064029135
6	0xbdabdbf3	-0.08391561
7	0xbc76460d	-0.01503135
8	0xbc04815d	-0.008087483
9	0xbc2baabe	-0.01047772
10	0xbc90e249	-0.017686026
11	0xbcd02d46	-0.025412213
12	0xbc9d7833	-0.019222355
13	0xbbbf9f0d	-0.0058478178
14	0xbc8c4054	-0.017120518
15	0xbab4f172	-0.0013804866
16	0x3d4bca1e	0.0497533
17	0x3c414790	0.011796847
18	0x3c07ffb3	0.00830071
19	0x3d808592	0.062754765
20	0x3d300267	0.04297104
21	0x3d556763	0.05210055
22	0xbc123ef1	-0.008926139
23	0x3d46f0ee	0.048569612
24	0x3c937bfc	0.018003456
25	0x3c57a03e	0.013160763
26	0x3d7c3ae6	0.061579607
27	0x3d0df6f3	0.034659337
28	0xbcc629b0	-0.0241898
29	0x3ccb8ba8	0.024846867
30	0x3e95f7e3	0.29290685
31	0x3e906cdf	0.28208062
32	0xbe408949	-0.1880237
33	0xbf3150de	-0.6926402
34	0xbf0660d5	-0.52491504
35	0x3d9174fd	0.07102392
36	0x3ed84c10	0.4224553
37	0x3e66f3e0	0.22553968
38	0x3ce782ae	0.028260555
39	0x3d85a12f	0.06524884
40	0x3ded677b	0.11592003
41	0x3e0591a4	0.13043839
42	0x3dfe1cea	0.12407859
43	0x3d8264fa	0.06366916
44	0x3d09bc5e	0.033626907
45	0xbcc28da8	-0.023749188
46	0xbd2bf9e0	-0.041986346
47	0xbbb34421	-0.005470768
48	0xbd9677cf	-0.073470704
49	0xbdb6e2e9	-0.089299984
50	0xbd7e4322	-0.06207574
51	0x3c706558	0.0146726
52	0xbda3d105	-0.07998852
53	0xbd4fd86e	-0.050743513
54	0xbd22d5e6	-0.03975477
55	0xbd1d5a74	-0.03841634
56	0xbcf2be9a	-0.029631902
57	0xbd4f82a7	-0.05066171
58	0xbd2f366c	-0.04277651
59	0xba5a8931	-0.0008336483
60	0xbc9bb087	-0.019005073
61	0xbd16b6c1	-0.03679538
62	0xbc384746	-0.011247462
63	0xbc34ac1c	-0.011027362
64	0xbc18d286	-0.009327536
65	0xbc79d5a6	-0.015248692
66	0xbd024a9c	-0.031809434
67	0xbb492229	-0.0030690527
68	0xbcf4938f	-0.029855518
69	0x3cb76505	0.022387037
70	0xbd625fc7	-0.05526712
71	0x3cd8e7f8	0.026477799
72	0xbd46bad0	-0.048518002
73	0x3cfa9111	0.030586751
74	0x3b4e1450	0.0031445213
75	0x3ca5d874	0.020244814
76	0x3ccda231	0.025101753
77	0x3b903c49	0.004401718
78	0xbd058145	-0.032593984
79	0xbd5f1262	-0.05446089
80	0xbdd18b71	-0.102316745
81	0xbd4719ec	-0.048608705
82	0xbe064f36	-0.13116154
83	0xbe02db98	-0.12779081
84	0xbe0f6e84	-0.14007002
85	0xbccb1461	-0.02478999
86	0x3c988f12	0.018622909
87	0x3dddf0b0	0.10836923
88	0x3e62c8b5	0.22146876
89	0x3ea11285	0.31459442
90	0x3e7cf009	0.24700941
91	0xbb85e888	-0.004086558
92	0xbe1bdae2	-0.15220216
93	0xbd358f0e	-0.04432588
94	0x3dd3d346	0.103430316
95	0x3d562ace	0.052286915
96	0x3d69c41b	0.057071786
97	0xbc123eab	-0.008926074
98	0xbd0bf191	-0.034165923
99	0x3dc9a304	0.09845546
100	0x3e2f87c8	0.1714164
101	0xbd0de9df	-0.034646865
102	0xbeba3917	-0.3637168
103	0xbeee8534	-0.46586
104	0xbea7f7f0	-0.3280635
105	0xbd11dd82	-0.035611637
106	0x3e37502f	0.17901681
107	0x3e54f172	0.20795229
108	0x3e227066	0.15863189
109	0x3e40d377	0.18830667
110	0x3df03979	0.11729712
111	0x3e03cfaa	0.12872186
112	0x3da7be63	0.0819061
113	0x3bd3fa91	0.006469079
114	0xb8c460ed	-9.364062e-05
115	0xbdb11ae5	-0.08647708
116	0xbcd98f41	-0.026557567
117	0xbd58d67c	-0.052938923
118	0xbda3be4d	-0.07995281
119	0xbcf14688	-0.029452577
120	0x3d1ce1de	0.03830134
121	0x3d8c75fc	0.06858441
122	0x3c82a2f3	0.01594684
123	0x3d1d136e	0.038348608
124	0xbd109e95	-0.035307486
125	0x3bea6c8e	0.007154054
126	0xbd22e272	-0.039766736
127	0xbc8fbbf4	-0.017545678
128	0xbd8e9ea8	-0.06963855
129	0xbd015e47	-0.03158405
130	0xbd919fd5	-0.07110564
131	0x3bf56d77	0.007489856
132	0xbbbb7bbf	-0.005721539
133	0xbd5ce00a	-0.053924598
134	0x3c504cf0	0.012713656
135	0xbd3c9965	-0.046044726
136	0x3cdfe16a	0.027329165
137	0xbd08f87e	-0.033440106
138	0xbd5255eb	-0.05135147
139	0xbda649db	-0.081195556
140	0x3cc8ad87	0.024496807
141	0xbd192f74	-0.03739877
142	0xbd9a6f28	-0.075407326
143	0x3c5a0b02	0.0133082885
144	0xbd3cc80d	-0.04608922
145	0xbd0db970	-0.034600675
146	0xbcb5ebed	-0.022207225
147	0xbd85f708	-0.06541258
148	0xbc966cbf	-0.018362401
149	0xbb686751	-0.0035461972
150	0x3cefabe4	0.029256769
151	0xbc0fa258	-0.008766733
152	0x3ab505e3	0.0013810958
153	0x3d2d4e9c	0.042311296
154	0x3d408ac6	0.047007345
155	0xbdd42328	-0.10358268
156	0xbe332085	-0.17492874
157	0x3d90b6c3	0.07066109
158	0x3d6365ff	0.055517193
159	0xbe412f0a	-0.188656
160	0xbeb0592b	-0.3444303
161	0xbd609ced	-0.054837156
162	0x3df49d4e	0.11944066
163	0x3e10faad	0.14158125
164	0x3c812306	0.01576377
165	0xbd8dac2b	-0.06917604
166	0xbd498e2d	-0.049207855
167	0x3c9d9add	0.019238884
168	0x3c8c7dca	0.017149825
169	0xbc56e40a	-0.013115892
170	0x3d5d6afc	0.054057106
171	0x3cd12158	0.025528595
172	0xbd74aaa6	-0.059733056
173	0xba6072a6	-0.0008562006
174	0x39ccf80f	0.0003909473
175	0x3b33f5cf	0.0027459746
176	0xbc282240	-0.010262072
177	0x3c4002d9	0.011719429
178	0xbcf4cc03	-0.029882437
179	0x3c40c550	0.011765793
180	0x3b8a7cff	0.0042263265
181	0xbd6c59e1	-0.057702903
182	0xbcf6e516	-0.030138534
183	0xbcc563b9	-0.024095403
184	0xbcc99bd8	-0.024610445
185	0x3c10772d	0.008817476
186	0xbd774fd5	-0.060378868
187	0xbcdfae00	-0.02730465
188	0xbc553c88	-0.01301492
189	0xbcdc7c34	-0.026914693
190	0xbd05e31e	-0.0326873
191	0x3cf0a573	0.029375767
192	0xbd63755a	-0.055531837
193	0x3bbf2457	0.0058331895
194	0xbd53965a	-0.05165706
195	0xbdacd299	-0.08438606
196	0xbd3003a6	-0.04297223
197	0xbd870385	-0.06592468
198	0xbcefe1dd	-0.029282505
199	0x3c68f0bc	0.014217552
200	0x3b8e28ac	0.0043383446
201	0xbbbc8527	-0.0057531777
202	0xbd1261df	-0.03573787
203	0xbc2a16eb	-0.010381441
204	0xbc789402	-0.015172007
205	0xbc6ead68	-0.01456771
206	0xbc48a6ff	-0.012246846
207	0xbd190752	-0.037360497
208	0xbcca0279	-0.024659382
209	0xbc14516b	-0.009052615
210	0xbdb17106	-0.08664136
211	0xbd1d46e3	-0.03839768
212	0x3c6e0a3e	0.014528809
213	0xbcc4c65d	-0.024020368
214	0xbc8a927c	-0.016915552
215	0x3d4d7d92	0.05016858
216	0x3dde57db	0.10856601
217	0x3e3f9cac	0.1871211
218	0xbd511260	-0.051042914
219	0xbee63b0e	-0.4496693
220	0xbe680cab	-0.22661082
221	0x3e6260f1	0.22107293
222	0x3e840127	0.2578213
223	0x3d876be3	0.06612375
224	0xbd7e9530	-0.062153995
225	0xbd024737	-0.031806197
226	0x3d420b7c	0.047374234
227	0x3dfa4f96	0.12222211
228	0x3d3eb07b	0.046555024
229	0xbd783b68	-0.06060353
230	0xbd112b1f	-0.035441514
231	0xbd3cc719	-0.04608831
232	0xbcc56c02	-0.024099354
233	0x3c35d8d6	0.011099061
234	0x3d08aec3	0.03336979
235	0x3bc2a762	0.0059403637
236	0xbc883eb2	-0.016631458
237	0xbb68200f	-0.00354195
238	0xbc190874	-0.009340394
239	0x3d817118	0.06320399
240	0xbd4ac434	-0.04950352
241	0xbc1f2995	-0.009714504
242	0xbd53ba01	-0.05169106
243	0x3ca7af0f	0.020469217
244	0xbd12cf2b	-0.035842102
245	0xbd1b6721	-0.03794015
246	0xbd18db0e	-0.03731828
247	0xbc2c2c4e	-0.01050861
248	0xbd9a26ed	-0.07526956
249	0xbc956283	-0.01823545
250	0xbc6c8fb0	-0.014438555
251	0xbc0bddaa	-0.008536736
252	0xbce8d96f	-0.028423993
253	0xbc5ae62b	-0.01336054
254	0x3c088796	0.008333107
255	0xbb9d0c1c	-0.0047927033

encoder.net.0.bias f4 [32]
0	0xba14a1b7	-0.00056698493
1	0xbddd22db	-0.10797664
2	0xbc66e218	-0.014091991
3	0xbd94d7c6	-0.07267718
4	0x3e66fefd	0.22558208
5	0x3df067ca	0.11738546
6	0x3941a175	0.00018466062
7	0x3dccd323	0.10001209
8	0xbda69930	-0.08134687
9	0x3e8bb21f	0.27284333
10	0x3e02823a	0.1274499
11	0xbc67d448	-0.014149733
12	0xbe1d2954	-0.15347797
13	0x3e060cc8	0.13090813
14	0x3d82fdf0	0.06396091
15	0x3e5840ec	0.21118516
16	0x3e47e081	0.19519235
17	0x3e80e8c4	0.25177586
18	0xbded0f6a	-0.115752056
19	0x3e2db649	0.16964068
20	0x3dfd13d9	0.12357301
21	0x3dbf7a7f	0.09349536
22	0x3dfa9d76	0.122370645
23	0x3da20d38	0.079126775
24	0xbc8633a7	-0.016382052
25	0x3d789248	0.06068638
26	0x3cc00a27	0.023442341
27	0x3d7f60b8	0.062348098
28	0x3e7e9fe5	0.24865682
29	0x3e9c4b33	0.30526122
30	0x3e3b736c	0.18305749
31	0x3e80910d	0.25110665

encoder.net.2.weight f4 [5, 32]
0	0xbc734ae7	-0.014849401
1	0xbc844f11	-0.016150983
2	0xbd83b2f6	-0.064306185
3	0xbd420481	-0.047367577
4	0xbd57db2b	-0.05269925
5	0x3e34a8d8	0.17642534
6	0xbc59a867	-0.013284779
7	0x3da8f2ad	0.08249412
8	0x3dae0c91	0.084984906
9	0x3cf684cc	0.03009262
10	0xbbaa42c5	-0.005195948
11	0x3d542bdf	0.05179965
12	0xbd024fd9	-0.03181443
13	0xbe2c5127	-0.16827832
14	0xbdd0ebe8	-0.102012455
15	0x3c680831	0.014162109
16	0x3dca46f9	0.09876818
17	0xbd88a813	-0.066726826
18	0xbe3e58f2	-0.18588617
19	0xbd2b4d2f	-0.041821655
20	0x3afdc5c1	0.0019361303
21	0xbd45fef8	-0.04833886
22	0x3c679a19	0.014135861
23	0x3e063394	0.13105613
24	0xbdd15a39	-0.10222287
25	0xbcddbcfc	-0.027067654
26	0xbde9fec4	-0.11425546
27	0xbd8ad20c	-0.067783445
28	0x3e19afce	0.1500847
29	0xbe2b7fa6	-0.16747913
30	0xbcd2f13b	-0.025749793
31	0xbd244550	-0.040105164
32	0xbe40b1a2	-0.18817762
33	0x3e08af78	0.13348186
34	0x3d6788f4	0.056527093
35	0xbd16effd	-0.036849964
36	0x3e3307f5	0.17483504
37	0xbd9f8e47	-0.07790809
38	0xbd730fca	-0.05934123
39	0xbd833db4	-0.06408253
40	0x3e28ce77	0.1648501
41	0x3e57c960	0.21072912
42	0xbd8bf8a4	-0.06834534
43	0xbde5b122	-0.11215426
44	0x3cf42310	0.029801875
45	0xbd5a08b6	-0.053230964
46	0x3e2577a8	0.16158926
47	0x3ccad403	0.024759298
48	0xbd2248a6	-0.039620064
49	0xbd2b191b	-0.04177199
50	0x3c3ee498	0.011651181
51	0x3da8aedc	0.08236477
52	0xbdb41536	-0.08793108
53	0x3cec608a	0.028854627
54	0x3ca8c590	0.020602018
55	0x3d4c222e	0.049837284
56	0x3dae5787	0.08512788
57	0x3ddb2615	0.10700623
58	0x3c3b652b	0.011437695
59	0x3dc0cb35	0.09413759
60	0x3cb50c2d	0.022100532
61	0xbd870afa	-0.065938905
62	0xbe04b381	-0.129591
63	0x3e0e9ebf	0.13927744
64	0x3c3a157f	0.011357664
65	0xbd784f45	-0.060622472
66	0xbdeaa87d	-0.11457918
67	0x3d5093f1	0.050922338
68	0xbda8f001	-0.08248902
69	0x3dc437aa	0.095809296
70	0x3d763314	0.060107306
71	0x3da7fb24	0.08202198
72	0x3e57c08e	0.21069548
73	0xbdb4f481	-0.08835698
74	0x3d9212d1	0.07132495
75	0xbe0f3fce	-0.13989183
76	0xbdb45055	-0.088043846
77	0xbd9d169e	-0.076703295
78	0x3db8747d	0.090065934
79	0xbe3d02e5	-0.18458135
80	0xbcd9d5b2	-0.026591156
81	0xbe630872	-0.2217119
82	0x3e101e4e	0.1407406
83	0x3cd858dd	0.02640956
84	0xbde6eb6c	-0.11275372
85	0x3daa60b1	0.08319224
86	0xbcad1699	-0.02112894
87	0xbdfd1bbb	-0.12358805
88	0x3c94e5da	0.018176008
89	0xbd3687b6	-0.044563018
90	0x3e176bcf	0.1478722
91	0xbd46a1da	-0.048494197
92	0xbd0f8c71	-0.035046045
93	0xbe5be8a6	-0.21475467
94	0x3e01bd72	0.12669924
95	0xbe02e534	-0.12782747
96	0xbda7aa36	-0.08186762
97	0x3ca1c642	0.019747857
98	0xbde67895	-0.11253468
99	0x3e13a672	0.14418963
100	0xbdb797fe	-0.08964537
101	0xbce55c5e	-0.027998146
102	0x3dc186c1	0.094495304
103	0xbc328e4d	-0.010898185
104	0xbd5cddbf	-0.05392241
105	0xbe00a87e	-0.12564275
106	0xbd964941	-0.07338191
107	0xbda51458	-0.08060521
108	0xbdc51f13	-0.096250676
109	0x3d8b208d	0.06793318
110	0x3da0e4c9	0.07856137
111	0x3d15e217	0.03659257
112	0xbe25f356	-0.16206107
113	0x3d99c5f7	0.07508462
114	0xbe249d54	-0.16075641
115	0xbca81ed6	-0.020522516
116	0x3de9a40e	0.11408244
117	0x3d277ba7	0.04088941
118	0xbe1530e2	-0.14569429
119	0x3d6c29c9	0.057657037
120	0x3d0833c8	0.033252507
121	0x3dd9b42f	0.106300704
122	0x3e466723	0.19375281
123	0x3d66fd36	0.056393825
124	0x3e2334d5	0.15938123
125	0x3e0540d7	0.13013016
126	0xbd92618f	-0.07147514
127	0xbdf18143	-0.11792233
128	0xbd95405a	-0.07287665
129	0x3e10478d	0.14089794
130	0xbd3d824f	-0.04626685
131	0xbd3469c5	-0.044046182
132	0xbe2be599	-0.16786803
133	0x3c9b15be	0.018931266
134	0x3bc10592	0.0058905566
135	0xbd8d2cdb	-0.06893321
136	0x3dcb2132	0.09918441
137	0x3cd9ca48	0.026585713
138	0xbc690001	-0.014221192
139	0x3e5ce1a3	0.21570449
140	0x3cd7d49d	0.0263465
141	0xbdfd0f96	-0.123564884
142	0xbe6d6398	-0.23182523
143	0xbe2086a6	-0.15676364
144	0x3b5792f8	0.0032893997
145	0xbd907315	-0.070532
146	0x3d94ea42	0.07271244
147	0xbdd3b478	-0.10337156
148	0xbdd501c5	-0.10400728
149	0xbdbd43ad	-0.09241424
150	0x3dc4bc2c	0.096062034
151	0xbd61a561	-0.05508936
152	0x3d351937	0.0442135
153	0xbc03a4ba	-0.008034879
154	0xbc86b153	-0.016441977
155	0x3d43b06b	0.047775667
156	0x3b940df4	0.004518265
157	0x3db397f6	0.087692186
158	0xbe5c42e4	-0.21509892
159	0xbe1950ca	-0.14972225

encoder.net.2.bias f4 [5]
0	0x3d08d056	0.03340181
1	0xbe144fda	-0.14483586
2	0x3d88e5b0	0.066844344
3	0xbddf162a	-0.10892899
4	0x3db313f5	0.08744041

decoder.net.0.weight f4 [32, 5]
0	0xbee88bcf	-0.45419165
1	0x3d270bd1	0.040782753
2	0x3da75387	0.081702285
3	0xbe744d4b	-0.2385761
4	0xbda1d1b6	-0.07901327
5	0x3e97f92f	0.296823
6	0x3e24d0f4	0.16095334
7	0xbf2ed2f2	-0.68290627
8	0xbf3f095e	-0.7462367
9	0xbe16d805	-0.14730842
10	0x3e9bdd47	0.3044226
11	0xbea70add	-0.32625476
12	0xbdc148b3	-0.094376944
13	0xbd78e33b	-0.06076358
14	0xbd60e979	-0.054910157
15	0x3dcd6582	0.10029127
16	0x3cf079d6	0.02935497
17	0xbe39d3f5	-0.18147261
18	0x3bb8e92f	0.005643032
19	0x3ecf9cbb	0.40549263
20	0xbed3cb78	-0.41366172
21	0x3db39931	0.08769453
22	0x3dc39b3b	0.09551092
23	0x3e983e6d	0.29735127
24	0xbc022c91	-0.007945196
25	0x3d58338a	0.052783526
26	0xbe83da79	-0.2575262
27	0xbec12fb9	-0.37731722
28	0x3e0cbcc5	0.13743885
29	0x3eedbf14	0.46434844
30	0x3dc8c8b7	0.09803908
31	0x3e072fcf	0.13201831
32	0x3e992545	0.29911247
33	0x3dbb47d4	0.091445595
34	0x3e0b09ff	0.13578032
35	0x3cd4485c	0.02591341
36	0x3dc87aa4	0.09789017
37	0x3eb63a02	0.3559113
38	0x3e8127bf	0.25225636
39	0x3debffe4	0.11523417
40	0xbf4fb90e	-0.81141746
41	0x3e2e87b2	0.17043951
42	0xbe3eef4d	-0.18645974
43	0x3df73701	0.12071038
44	0xbce0edfc	-0.02745723
45	0xbc0fc371	-0.008774624
46	0x3efe15ab	0.49625906
47	0xbea5e252	-0.3239923
48	0xbdc527f8	-0.09626764
49	0xbef56ce9	-0.47934654
50	0x3e8ebdb2	0.278791
51	0x3e9e0417	0.30862495
52	0xbe8cd533	-0.27506408
53	0x3d19b213	0.03752334
54	0xbe25d730	-0.16195369
55	0x3d9409d7	0.07228439
56	0x3cc27d47	0.023741378
57	0xbe7037eb	-0.23458831
58	0x3e9a391d	0.301217
59	0xbe08bc88	-0.13353169
60	0x3dd6771a	0.104719356
61	0xbdd10afd	-0.10207174
62	0x3ee378e4	0.4442817
63	0x3ea25585	0.3170587
64	0x3e483df2	0.1955488
65	0xbebbc724	-0.3667537
66	0xbf02f8b7	-0.5116076
67	0xbf21fb17	-0.6327376
68	0x3dd1f5d5	0.10251967
69	0xbe94b831	-0.29046777
70	0xbae0fd88	-0.0017165402
71	0x3ea10b56	0.3145396
72	0xbeb719aa	-0.35761768
73	0xbd1947eb	-0.037422102
74	0xbd5c1c05	-0.05373766
75	0x3dd79d52	0.10528053
76	0x3e80e129	0.25171784
77	0xbdbd6b99	-0.09249038
78	0xbef75569	-0.4830735
79	0x3e16a33c	0.14710706
80	0x3e5bc0b7	0.21460234
81	0x3f29b659	0.66293865
82	0xbebf0973	-0.37311897
83	0x3eb1c481	0.34720233
84	0x3f2a0df5	0.66427547
85	0xbec1cffb	-0.3785399
86	0xbe942a94	-0.28938735
87	0xbd9fe03f	-0.078064434
88	0x3ea32327	0.31862757
89	0xbe2aeb86	-0.16691408
90	0x3ece7932	0.4032684
91	0xbeaad4a9	-0.33365372
92	0x3dabda7f	0.08391284
93	0xbc77b78f	-0.015119447
94	0x3e957922	0.2919398
95	0x3e163be4	0.14671284
96	0xbde65daf	-0.112483375
97	0xbd1b9442	-0.037983187
98	0x3f4fbba0	0.8114567
99	0xbe6dfd16	-0.23241076
100	0xbdfc77fd	-0.123275734
101	0x3dca3faf	0.09875428
102	0xbef46cd1	-0.4773927
103	0x3e47c695	0.19509347
104	0xbce24c2e	-0.027624216
105	0x3e3979b9	0.1811284
106	0x3f5eaf20	0.8698597
107	0x3da9e5dc	0.08295795
108	0x3ed72f37	0.4202821
109	0x3e9249d8	0.28571963
110	0xbe807d9c	-0.25095832
111	0x3d911427	0.07083922
112	0x3d67bd95	0.056577284
113	0xbdbe0a31	-0.092792876
114	0x3d954da8	0.072902024
115	0x3e3865be	0.18007562
116	0x3e716ad3	0.23575906
117	0xbe98cdd4	-0.29844534
118	0xbbb56378	-0.0055355392
119	0xbd013e6c	-0.03155367
120	0xbe1d058d	-0.15334149
121	0xbe8e603f	-0.27807805
122	0xbe1fd6c9	-0.15609278
123	0xbeaa32f9	-0.33242014
124	0x3e8b8d09	0.2725604
125	0x3e3b52e4	0.18293339
126	0xbc7e4a7a	-0.015520686
127	0x3ef16375	0.47146192
128	0xbe52e79a	-0.20596161
129	0xbcd9cdd7	-0.02658741
130	0xbdd5fcf2	-0.10448636
131	0xbe98bb58	-0.29830432
132	0x3db2af7a	0.08724876
133	0xbe47476c	-0.19460839
134	0xbe9356d8	-0.28777194
135	0x3c55efd5	0.013057669
136	0xbeb1a5f5	-0.34696928
137	0xbd70ba4c	-0.058771417
138	0xbe92f483	-0.28702173
139	0xbec38a6e	-0.3819155
140	0x3e92cfdd	0.28674212
141	0x3da19bfb	0.07891079
142	0xbd5d17da	-0.053977825
143	0xbcf4d3ce	-0.029886153
144	0xbdcf411b	-0.1011984
145	0x3e0dc70a	0.13845459
146	0xbf34375f	-0.7039699
147	0xbf22aa51	-0.6354113
148	0xbe903fa5	-0.28173557
149	0x3f6d2f9a	0.9265076
150	0x3f3a2c74	0.7272408
151	0x3d13e565	0.03610744
152	0xbecd9783	-0.40154657
153	0x3e99c07f	0.30029675
154	0xbe9da45a	-0.30789453
155	0xbedd7ae0	-0.4325781
156	0xbe67f348	-0.22651398
157	0xbde4d1b9	-0.11172814
158	0xbd2e4355	-0.04254468
159	0x3eb5d2a5	0.35512272

decoder.net.0.bias f4 [32]
0	0x3de1266f	0.10993659
1	0xbe5b2f83	-0.21404843
2	0x3d9636e6	0.0733469
3	0x3e0d8943	0.13821892
4	0xbee36ea2	-0.44420344
5	0x3e1e6154	0.15466815
6	0x3e18607b	0.14880554
7	0x3e1e489c	0.15457386
8	0xbdd2c3b2	-0.10291232
9	0x3e04f1a8	0.1298281
10	0xbed9dbc7	-0.4255049
11	0x3e0f3c76	0.13987908
12	0x3e6407be	0.22268578
13	0xbdc1d2c4	-0.094640285
14	0xbeaa2ac1	-0.33235744
15	0x3d42b4c7	0.047535684
16	0x3ca49e1a	0.02009492
17	0x3e0cef56	0.13763174
18	0xbedd39a6	-0.43208045
19	0x3c83b948	0.01607956
20	0xbc982955	-0.018574396
21	0x3e1dcaad	0.15409346
22	0x3d7fa416	0.062412344
23	0x3d98ee60	0.074673414
24	0x3cd94316	0.026521247
25	0x3d9b84cf	0.075936906
26	0xbeeafb17	-0.4589469
27	0xbb2569aa	-0.0025239983
28	0x3d3f373d	0.04668354
29	0xbde333cd	-0.110938646
30	0x3c82c82d	0.015964592
31	0x3e0ab070	0.13543868

decoder.net.2.weight f4 [64, 32]
0	0xbe65497b	-0.22391312
1	0x3ccd496c	0.025059424
2	0x3e041840	0.12899876
3	0x3d52034b	0.05127267
4	0xbdbe52f6	-0.09293167
5	0xbdeae7e3	-0.1147001
6	0xbdd593ca	-0.10428579
7	0xbc6d6ff2	-0.014492022
8	0xbe01a36b	-0.12659995
9	0xbc484276	-0.012222877
10	0xbda07627	-0.07835036
11	0x3e0f62b1	0.14002492
12	0x3d857902	0.06517221
13	0xbd223f3e	-0.039611094
14	0x3dfee414	0.12445846
15	0xbd81919e	-0.063266024
16	0xbc4e6a02	-0.012598516
17	0xbd0d765d	-0.03453671
18	0xbde58849	-0.11207635
19	0x3cad817d	0.021179909
20	0xbd5323ca	-0.051547803
21	0xbc107493	-0.008816856
22	0xbe073489	-0.13203634
23	0xbddd9ff5	-0.10821525
24	0xbd83482e	-0.064102516
25	0xbdc4ef67	-0.09615975
26	0xbddd4300	-0.10803795
27	0xbcab4dba	-0.020911086
28	0x3dd5d336	0.10440676
29	0x3d112432	0.03543491
30	0x3dcb4e4d	0.09927044
31	0xbdddc4fd	-0.10828588
32	0xbd4723d4	-0.048618153
33	0xbd1713d5	-0.036884148
34	0x3e621f79	0.22082318
35	0x3dae5609	0.08512504
36	0xbd1a2a5e	-0.03763806
37	0xbc59809c	-0.013275292
38	0x3dd40239	0.103519864
39	0x3bd05b8c	0.0063585695
40	0xbe018733	-0.1264923
41	0x3d90755e	0.07053636
42	0x3e08f033	0.13372879
43	0x3e277939	0.16354837
44	0x3e4bfc9e	0.19920585
45	0x3d3d59d9	0.046228264
46	0x3de2e44d	0.11078701
47	0xbd5a1ca5	-0.053249974
48	0xbd1e5982	-0.03865958
49	0x3c934429	0.017976837
50	0x3d89f645	0.06736425
51	0x3c2063f6	0.009789458
52	0xbb135545	-0.0022481245
53	0x3cae1fa0	0.021255314
54	0xbdca4074	-0.09875575
55	0x3d8fd77d	0.07023523
56	0x3d2a213f	0.041535612
57	0x3b201212	0.0024424833
58	0xbd1dcc71	-0.03852505
59	0x3d64f5aa	0.055898346
60	0x3e3bc54d	0.18336983
61	0xbab79775	-0.001400693
62	0x3e1ac65d	0.15114732
63	0xbd91deda	-0.07122584
64	0xbdaa74fb	-0.083230935
65	0xbb867f62	-0.0041045407
66	0x3e364767	0.17800675
67	0x3cb093e0	0.021554887
68	0xbdb78e95	-0.08962742
69	0x3bdc2ec2	0.006719441
70	0x3db376bb	0.087628804
71	0x3d17c1c7	0.037050035
72	0xbe1ddbae	-0.15415832
73	0x3d147896	0.036247812
74	0xbe2ad095	-0.1668113
75	0x3dfac3dc	0.122443885
76	0x3d825b65	0.063650884
77	0xbd1aaab4	-0.03776045
78	0xbd9ad3aa	-0.07559903
79	0xbdf0ce39	-0.11758084
80	0x3c426146	0.011864012
81	0xbd96dfbd	-0.073668934
82	0xbd15fdf4	-0.03661914
83	0xbb97ece2	-0.004636393
84	0xbd28b00b	-0.041183513
85	0x3cc6025c	0.024171047
86	0xbe4b2256	-0.19837317
87	0xbd21b30a	-0.039477386
88	0xbd995fe5	-0.074889936
89	0xbe0d74d4	-0.13814098
90	0xbdc56347	-0.09638076
91	0x3dc1d9ab	0.09465345
92	0x3c450ab0	0.012026474
93	0xbb7b5764	-0.003835165
94	0x3e0db4e9	0.13838543
95	0xbda71057	-0.081574135
96	0xbe8502cb	-0.25978693
97	0xbc2b4be0	-0.010455102
98	0x3e2527aa	0.16128412
99	0xbd33f853	-0.043937992
100	0xbd1e0485	-0.03857853
101	0xbc964ae7	-0.018346263
102	0x3e1c8b9c	0.15287632
103	0x3d25886d	0.04041331
104	0xbe0e8857	-0.13919197
105	0x3d2a7c72	0.041622587
106	0x3d8f0816	0.06983964
107	0x3e2f3490	0.17109895
108	0x3c139998	0.009008788
109	0xbd9e01fb	-0.077152215
110	0xbd2180aa	-0.039429344
111	0xbdf0b9f0	-0.11754215
112	0x3d358f19	0.04432592
113	0x3cd3fe9d	0.025878245
114	0x3e1b5e2e	0.15172645
115	0xbcfd94ce	-0.030954745
116	0xbcacc579	-0.021090256
117	0xbd3d4342	-0.04620672
118	0xbddc020c	-0.10742578
119	0x3d00351a	0.03130064
120	0x3d437599	0.04771957
121	0xbd0990d8	-0.0335854
122	0xbda60f21	-0.08108354
123	0x3d59c4a6	0.053166054
124	0xbb429c62	-0.0029695262
125	0xbcf86e5d	-0.030326063
126	0x3de49f8f	0.11163246
127	0xbd938b65	-0.07204322
128	0xbe208192	-0.15674427
129	0xbb7cc4d5	-0.003856947
130	0x3d9e0877	0.07716458
131	0x3dc9e35a	0.09857817
132	0x3dcb6fcb	0.09933432
133	0x3c35666e	0.011071784
134	0xbd8eb2f8	-0.06967729
135	0x3d9bf7c7	0.07615619
136	0xbdd38395	-0.10327832
137	0xbccc3d54	-0.024931587
138	0xbb2a55dc	-0.0025991118
139	0x3df653b2	0.12027682
140	0x3b851761	0.004061625
141	0xbcf9403a	-0.030426133
142	0x3e2649df	0.16239117
143	0xbd8eeac6	-0.06978373
144	0xbce78a56	-0.028264206
145	0x3bfc4ec8	0.007699821
146	0x3e1de42f	0.15419076
147	0x3c92d4ac	0.017923675
148	0xbc82946d	-0.015939916
149	0x3ca57a8f	0.020200042
150	0xbdf6d304	-0.12051967
151	0xbd66de70	-0.056364477
152	0xbd00622e	-0.03134363
153	0x3c806f44	0.015678056
154	0xbde9d2b6	-0.11417143
155	0x3d3040a2	0.04303039
156	0x3e2abca9	0.1667353
157	0xbcb60265	-0.022217939
158	0x3df896fd	0.12138174
159	0xbe2b7630	-0.16744304
160	0xbdb21cef	-0.08696925
161	0xbcf4c199	-0.02987747
162	0x3e20e42d	0.15712042
163	0xbe0389e6	-0.12845573
164	0xbc917a1f	-0.017758427
165	0x3df748fe	0.12074469
166	0x3cf0f3cb	0.029413125
167	0x3d880143	0.06640866
168	0xbde26a51	-0.110554345
169	0xbd9cf917	-0.076646976
170	0xbd42f9b2	-0.04760141
171	0x3d3a6c48	0.04551342
172	0xbd0b332b	-0.033984344
173	0xbd25838a	-0.04040865
174	0xbc25e327	-0.010124958
175	0xbdbe6925	-0.092973985
176	0x3d2189ad	0.03943794
177	0x3cbc2354	0.022966065
178	0xbd5ceeaa	-0.053938545
179	0x3af3a272	0.0018587841
180	0xbc23cef7	-0.009998075
181	0x391a2e28	0.00014703779
182	0xbe3be94d	-0.18350716
183	0x3e011005	0.12603767
184	0x3d118a8d	0.035532523
185	0xbcf6a925	-0.030109951
186	0x3cac066c	0.020999156
187	0xbd48b6eb	-0.04900257
188	0x3da7de77	0.08196729
189	0xbd4816dc	-0.048849925
190	0x3ddfc7b6	0.10926764
191	0xbe666796	-0.22500452
192	0xbd4ad576	-0.04951998
193	0xbda8ec58	-0.08248204
194	0x3e3fda28	0.18735564
195	0xbd84b26a	-0.06479342
196	0xbd079b46	-0.033107065
197	0x3dc80c99	0.09768028
198	0xbd8cbd62	-0.068720594
199	0x3d54e54a	0.05197648
200	0xbdef0251	-0.11670364
201	0x3cb3bc87	0.021940483
202	0xbc20493b	-0.0097830845
203	0x3e38dac6	0.18052205
204	0x3d968605	0.07349781
205	0x3d4c7032	0.049911685
206	0x3d3e85af	0.04651421
207	0xbcb6ef12	-0.022330794
208	0x3dd795a9	0.10526592
209	0xbcd8dbc4	-0.02647198
210	0xbdeae8ae	-0.114701614
211	0xbc66e9d8	-0.014093839
212	0xbd505768	-0.050864607
213	0xbd2d5a7e	-0.04232263
214	0xbe1f2f3e	-0.15545365
215	0xbce1a529	-0.027544575
216	0x3c9570c3	0.018242246
217	0x3d34915f	0.04408395
218	0xbe1219ff	-0.14267729
219	0xbdd308f6	-0.103044435
220	0x3db51007	0.088409476
221	0xbc5d565c	-0.013509359
222	0x3e0b254a	0.13588443
223	0xbe539a3c	-0.20664304
224	0xbe945f94	-0.2897917
225	0xbd128ad8	-0.035776943
226	0x3d86ae15	0.06576172
227	0xbdde438f	-0.108527295
228	0xbe1cbbe8	-0.15306056
229	0xbc3a6a56	-0.0113778915
230	0x3d39948a	0.045307674
231	0x3be8a761	0.0071000312
232	0xbdb71061	-0.08938671
233	0xbd40898e	-0.047006182
234	0x3e0186a8	0.12649024
235	0x3d99286b	0.07478412
236	0x3c9687b5	0.018375257
237	0x3d2af1e0	0.041734576
238	0x3d31a680	0.043371677
239	0xbd308ad7	-0.043101158
240	0x3d865b5c	0.06560394
241	0xbd6f54ea	-0.05843059
242	0x3e13c65c	0.14431137
243	0xbc30e99c	-0.010797884
244	0x3c337836	0.0109539535
245	0xbd3f9801	-0.04677582
246	0xbe00faad	-0.12595625
247	0xbd1d896b	-0.03846113
248	0xbd86d016	-0.06582658
249	0xbdbf788d	-0.09349165
250	0x3e358167	0.17725144
251	0x3d019812	0.031639166
252	0x3c0f63fd	0.008751866
253	0x3d04410e	0.032288603
254	0x3e26a922	0.16275457
255	0xbdc59733	-0.096479796

decoder.net.2.bias f4 [64]
0	0x3d8c5590	0.06852257
1	0xbde11d5f	-0.1099193
2	0x3bcf6f3f	0.0063304002
3	0x3a80531d	0.0009790395
4	0x3ca9017c	0.02063059
5	0x3d00adcb	0.031415742
6	0xbc384d88	-0.011248954
7	0x3d9c2e7d	0.076260544
8	0xbd99790c	-0.07493791
9	0xbda32cc2	-0.07967521
10	0xbbcfe120	-0.0063439757
11	0x3b69660a	0.0035613799
12	0xbd86d5f6	-0.065837786
13	0x39fc6736	0.00048142084
14	0x3d38aa81	0.04508448
15	0xbd1a9511	-0.037739817
16	0xbc577ba1	-0.013152034
17	0xbb262c4a	-0.0025355988
18	0x3d7eb490	0.062183917
19	0x3d030788	0.031989604
20	0x3d649cba	0.05581353
21	0xbca35fd0	-0.019943148
22	0x3d2008ae	0.039070778
23	0x3d7b9271	0.061418954
24	0xbd9905e4	-0.07471827
25	0xbdfd26c2	-0.12360908
26	0xbdd0c518	-0.10193843
27	0x3d578b8f	0.052623328
28	0x3d277c99	0.04089031
29	0xbd13df92	-0.036101885
30	0xbc855443	-0.01627553
31	0x3b9c512c	0.0047704186
32	0x3e40d5bb	0.18831532
33	0x3c95efd7	0.018302841
34	0xbd0e2983	-0.034707557
35	0xbe220628	-0.15822661
36	0xbe5be09b	-0.21472399
37	0xbe3c8b72	-0.18412569
38	0xbdcf1408	-0.101112425
39	0x3d3195e8	0.043355852
40	0x3ddd6ce7	0.10811787
41	0x3e1a70c5	0.1508208
42	0xbd88f5c2	-0.066874996
43	0x3d92f423	0.07175472
44	0xbcae8aec	-0.021306477
45	0x3b22c80e	0.002483848
46	0xbd9251ff	-0.07144546
47	0xbdb6e1c7	-0.08929782
48	0x3d0cec31	0.034404937
49	0xbd6e5cbd	-0.05819391
50	0x3d18fd11	0.037350718
51	0xbddd22a6	-0.10797624
52	0x3d95f2bc	0.073216885
53	0x3cf8516a	0.030312259
54	0xbdc72e3a	-0.09725614
55	0x3da1d7b3	0.079024695
56	0x3d83bd55	0.064325966
57	0xbd809006	-0.0627747
58	0xbc50ad91	-0.012736694
59	0xbc9a8d35	-0.01886616
60	0x3d0e8b36	0.03480073
61	0x3cbcfd3e	0.023069974
62	0x3d277a40	0.04088807
63	0xbc1c1296	-0.009525916

exp_avg f4 [32, 64]
0	0xb385f6a0	-6.238156e-08
1	0x35b2c358	1.3318886e-06
2	0x35354cae	6.753934e-07
3	0x34fb585a	4.6816677e-07
4	0x3506e97a	5.0258643e-07
5	0x34a5d3da	3.0887787e-07
6	0x34e19a47	4.2021767e-07
7	0x355e0fa0	8.272418e-07
8	0x3541b139	7.2155996e-07
9	0x357ff9bd	9.535832e-07
10	0x34e0664b	4.179768e-07
11	0x35859de6	9.955227e-07
12	0x356d2815	8.8347707e-07
13	0x35795738	9.288665e-07
14	0x34ed6ca3	4.4223734e-07
15	0x351bbeb7	5.8019526e-07
16	0x35434eca	7.2757814e-07
17	0x34a4e787	3.071584e-07
18	0x338d8be3	6.5912694e-08
19	0x351cacf9	5.8366237e-07
20	0x348d8dac	2.6366376e-07
21	0x3508221b	5.071358e-07
22	0x35700f1d	8.942896e-07
23	0x33e0fc67	1.04767246e-07
24	0x35059314	4.976039e-07
25	0xb3fd3232	-1.1790361e-07
26	0x3464182c	2.1242948e-07
27	0x34febf6e	4.745047e-07
28	0x35084fa4	5.077984e-07
29	0x3545b5ae	7.36526e-07
30	0x35b83dd1	1.3727059e-06
31	0x35bc9712	1.4051059e-06
32	0x353c3999	7.0119273e-07
33	0x3537d7f5	6.848707e-07
34	0x35ac3b58	1.283227e-06
35	0x35183700	5.670445e-07
36	0xb499cc13	-2.8646954e-07
37	0xb59c767c	-1.1657389e-06
38	0xb6001043	-1.9082952e-06
39	0xb51d1ead	-5.8531697e-07
40	0xb427906f	-1.5605632e-07
41	0x3560dd11	8.3768197e-07
42	0x3542fa78	7.263511e-07
43	0x356681ad	8.587038e-07
44	0x357613dd	9.1671046e-07
45	0x3595eef2	1.1170907e-06
46	0x3543c632	7.2931573e-07
47	0x3528f7fd	6.294575e-07
48	0x35817e55	9.648016e-07
49	0x34555def	1.9871344e-07
50	0x3532c6b1	6.65993e-07
51	0x34292458	1.5752573e-07
52	0x34d70dbd	4.0056867e-07
53	0x3491a7f0	2.7130545e-07
54	0x34070c41	1.2577313e-07
55	0xb457436c	-2.0047963e-07
56	0x350fa283	5.3508137e-07
57	0x328e12dc	1.6539552e-08
58	0x343c6763	1.7546476e-07
59	0x355092ea	7.7699826e-07
60	0x35217d48	6.015948e-07
61	0x349f7581	2.9701553e-07
62	0x34ceae0f	3.8497134e-07
63	0x354ba38f	7.58614e-07
64	0x358aa2c6	1.0329175e-06
65	0x35429949	7.249369e-07
66	0x34e08d2c	4.1825967e-07
67	0x355e89f2	8.290218e-07
68	0x34e977f8	4.348692e-07
69	0x34cb5905	3.7876467e-07
70	0x350b367d	5.1860826e-07
71	0x347644be	2.2935544e-07
72	0x35129d0a	5.461776e-07
73	0xb4b2d5ed	-3.3310735e-07
74	0x3589a210	1.0254462e-06
75	0x359212e8	1.088335e-06
76	0x34d41f3b	3.95108e-07
77	0x35ad482d	1.291051e-06
78	0x35534265	7.870024e-07
79	0x35191b4a	5.703665e-07
80	0x35a6ed2d	1.2436991e-06
81	0x35377386	6.834092e-07
82	0x35b001b5	1.3113519e-06
83	0x359668b7	1.1206347e-06
84	0x35920b08	1.0881058e-06
85	0x354df793	7.672872e-07
86	0x356b7565	8.7715154e-07
87	0x35cb4014	1.5143328e-06
88	0x354f9460	7.7329423e-07
89	0x352665ed	6.198814e-07
90	0x34dfc5c8	4.1680892e-07
91	0x3497861f	2.8223528e-07
92	0xb43a8fb6	-1.7374882e-07
93	0xb30eb13b	-3.322314e-08
94	0xb47b77a5	-2.3419723e-07
95	0xb352e30a	-4.9100926e-08
96	0x35cea00a	1.5394774e-06
97	0x364b2840	3.0272786e-06
98	0x3691aff2	4.3418195e-06
99	0x36891d37	4.086319e-06
100	0x345fad66	2.0831575e-07
101	0xb5822976	-9.697821e-07
102	0xb5fcf1b1	-1.8845805e-06
103	0xb6266af2	-2.4798178e-06
104	0xb59f980d	-1.1890676e-06
105	0x34ab7a0a	3.1940027e-07
106	0x35b7295f	1.3646603e-06
107	0x361c79e8	2.331677e-06
108	0x36013160	1.9251238e-06
109	0x36148e77	2.2136644e-06
110	0x360a93db	2.0649666e-06
111	0x35cf6500	1.5452097e-06
112	0x358154af	9.635895e-07
113	0x35989d6a	1.1370696e-06
114	0x341ba42d	1.4495227e-07
115	0x34c72a0b	3.709723e-07
116	0xb453870b	-1.9700035e-07
117	0xb4a1e257	-3.015327e-07
118	0xb3865a47	-6.2562826e-08
119	0x351fa594	5.9473064e-07
120	0x35622f99	8.4260824e-07
121	0xb31471ea	-3.456254e-08
122	0x357a2d00	9.319774e-07
123	0x35173114	5.63233e-07
124	0xb48fecb5	-2.6808053e-07
125	0x3510be50	5.392112e-07
126	0x35309abe	6.579029e-07
127	0x35082760	5.0721246e-07
128	0xb470939b	-2.240544e-07
129	0xb36d57e6	-5.5260806e-08
130	0xb457e197	-2.0105504e-07
131	0xb3eccc1d	-1.10267344e-07
132	0xb4a74a23	-3.1160116e-07
133	0xb47a9052	-2.3335568e-07
134	0xb44cd6ba	-1.9077098e-07
135	0xb3e66b56	-1.0729734e-07
136	0xb4c6a6be	-3.7001695e-07
137	0xb40c55ab	-1.3069682e-07
138	0xb3f639a8	-1.1465755e-07
139	0xb409ebc7	-1.2844895e-07
140	0xb447abca	-1.8595816e-07
141	0xb487ea75	-2.53163e-07
142	0xb4b83eb8	-3.4318305e-07
143	0xb4a34b62	-3.0415964e-07
144	0xb4aad340	-3.1818672e-07
145	0xb4d570c1	-3.975638e-07
146	0x332647ef	3.871531e-08
147	0xb4718d76	-2.2496337e-07
148	0xb4482974	-1.8641532e-07
149	0x330d3403	3.2876425e-08
150	0xb46091bb	-2.0914642e-07
151	0xb33dc926	-4.4187935e-08
152	0xb3d966bf	-1.0123539e-07
153	0xb493a0ee	-2.7497975e-07
154	0xb49ef63b	-2.960895e-07
155	0xb49921ea	-2.8523147e-07
156	0xb4ad8615	-3.232132e-07
157	0x3477da71	2.3083136e-07
158	0x34bc3d55	3.5062354e-07
159	0xb47db174	-2.3627018e-07
160	0xb5145672	-5.526009e-07
161	0xb53de6e4	-7.0743977e-07
162	0xb556f389	-8.00756e-07
163	0xb572bd70	-9.0427693e-07
164	0xb550508c	-7.760325e-07
165	0xb4877009	-2.5227226e-07
166	0xb3cc304f	-9.5082775e-08
167	0x33733c5c	5.6632743e-08
168	0x350a7607	5.158076e-07
169	0x34d92dce	4.0452727e-07
170	0x34c66b02	3.6958232e-07
171	0x34815e18	2.4096585e-07
172	0x341fdbe3	1.4888023e-07
173	0xb34d839b	-4.7849976e-08
174	0xb38d58c9	-6.581974e-08
175	0xb50b21b5	-5.1830585e-07
176	0xb4cc851c	-3.809481e-07
177	0xb518ae84	-5.6878366e-07
178	0xb4ec80fe	-4.405228e-07
179	0xb4b17e46	-3.3060695e-07
180	0xb440049b	-1.7883069e-07
181	0xb4f7599a	-4.607253e-07
182	0xb48c73ff	-2.616143e-07
183	0xb4bd877b	-3.5302568e-07
184	0xb4b86493	-3.4345848e-07
185	0xb4215bb2	-1.5027652e-07
186	0x33946a2f	6.911102e-08
187	0xb4a1927b	-3.0095165e-07
188	0xb4a040ca	-2.9849463e-07
189	0xb405a9e9	-1.2448403e-07
190	0xb474fb81	-2.2815767e-07
191	0xb4ae8684	-3.25079e-07
192	0xb41b5145	-1.4465066e-07
193	0xb3f1bf42	-1.12572266e-07
194	0xb4c67aa6	-3.6969612e-07
195	0xb3dba3bb	-1.02277646e-07
196	0xb43a4471	-1.7347499e-07
197	0xb462ff0e	-2.1140679e-07
198	0x342b149d	1.5933115e-07
199	0x32415ac1	1.1254714e-08
200	0xb3aa216c	-7.922321e-08
201	0xb432b9e9	-1.6645176e-07
202	0xb400025e	-1.192179e-07
203	0xb47cdfe7	-2.3550784e-07
204	0xb2c126c9	-2.2485795e-08
205	0x33721efd	5.63732e-08
206	0xb4a72eb8	-3.1140166e-07
207	0xb359b484	-5.0688428e-08
208	0xb2aa9437	-1.9858005e-08
209	0xb4384613	-1.7161828e-07
210	0xb427b857	-1.562015e-07
211	0xb49bbe21	-2.9009337e-07
212	0x33ec0cda	1.0991944e-07
213	0xb3d2b7f7	-9.81235e-08
214	0x3341d00a	4.5125525e-08
215	0xb37c5d37	-5.87581e-08
216	0xb2fc75f7	-2.9390305e-08
217	0xb42c480e	-1.6044962e-07
218	0xb465cb73	-2.1401301e-07
219	0xb27ae320	-1.46035575e-08
220	0xb4ae306b	-3.2445254e-07
221	0x334e608b	4.8050918e-08
222	0xb2c11e0d	-2.2481823e-08
223	0xb4722c43	-2.2554109e-07
224	0xb4b8e191	-3.4436792e-07
225	0xb51edace	-5.917799e-07
226	0xb51fa646	-5.9474075e-07
227	0xb38d12be	-6.569233e-08
228	0x34b008a0	3.278883e-07
229	0x350cf319	5.250782e-07
230	0x35631ae2	8.460321e-07
231	0x34979284	2.8232546e-07
232	0xb2c29b90	-2.2655314e-08
233	0xb497e58a	-2.8292953e-07
234	0xb4d2a32a	-3.9234266e-07
235	0xb4cbe62f	-3.7979177e-07
236	0xb4177c01	-1.4108083e-07
237	0xb501093e	-4.8069694e-07
238	0xb4c0dda7	-3.592406e-07
239	0xb5042c22	-4.9238054e-07
240	0xb487ece4	-2.531807e-07
241	0xb3487916	-4.6676256e-08
242	0xb38c77fd	-6.541084e-08
243	0xb2a54e6c	-1.924419e-08
244	0x33ef69ca	1.1148548e-07
245	0xb33677e3	-4.2484213e-08
246	0x32b10025	2.0605578e-08
247	0xb43f2c32	-1.780434e-07
248	0xb426551c	-1.5490917e-07
249	0xb43e273e	-1.7709405e-07
250	0xb4513ebb	-1.9487463e-07
251	0x32ee4d1e	2.7741915e-08
252	0xb42b6c21	-1.5964953e-07
253	0xb3bf3f54	-8.90565e-08
254	0x3227363e	9.733013e-09
255	0x330c3944	3.2648373e-08

exp_avg_sq f4 [32, 64]
0	0x2c7575ce	3.4881989e-12
1	0x2c77815a	3.5172616e-12
2	0x2c8d656d	4.0187216e-12
3	0x2c72b581	3.4491023e-12
4	0x2c7357a0	3.4581019e-12
5	0x2c888670	3.880278e-12
6	0x2c89dcb0	3.9182754e-12
7	0x2c7e7d18	3.6165012e-12
8	0x2c8fa7a8	4.082918e-12
9	0x2c8f2377	4.068242e-12
10	0x2c81e16f	3.6914287e-12
11	0x2c935ab7	4.1880627e-12
12	0x2c8cbe34	4.000156e-12
13	0x2c81325f	3.671993e-12
14	0x2c8aabff	3.9412913e-12
15	0x2c949317	4.2227432e-12
16	0x2c8e8177	4.0502562e-12
17	0x2caccba8	4.9111444e-12
18	0x2c8b9cd4	3.968029e-12
19	0x2c94f9fb	4.2341664e-12
20	0x2c9e1ecd	4.4940497e-12
21	0x2cb2611f	5.069847e-12
22	0x2c9f168f	4.5215563e-12
23	0x2cdc2641	6.257023e-12
24	0x2d1121ff	8.249844e-12
25	0x2d2b6a17	9.743781e-12
26	0x2d413940	1.0983492e-11
27	0x2d558f17	1.21394205e-11
28	0x2d6aa777	1.3338545e-11
29	0x2d56908c	1.21965875e-11
30	0x2d70e040	1.3692214e-11
31	0x2db27a1d	2.0290486e-11
32	0x2e036ec5	2.9884335e-11
33	0x2e11bc39	3.3136358e-11
34	0x2e03bbae	2.9952645e-11
35	0x2dd9cfaf	2.4762274e-11
36	0x2da55dd2	1.8799993e-11
37	0x2d7daa24	1.4419164e-11
38	0x2d882dc6	1.5481737e-11
39	0x2d6f3dd9	1.359931e-11
40	0x2d47e743	1.1363191e-11
41	0x2d0f10f5	8.132374e-12
42	0x2cde0df7	6.31117e-12
43	0x2cb3d92f	5.111598e-12
44	0x2ca67d44	4.731911e-12
45	0x2c9c5bdc	4.443985e-12
46	0x2c859619	3.7967515e-12
47	0x2ca3aadb	4.6517074e-12
48	0x2c9d002e	4.4622283e-12
49	0x2c9192da	4.1374517e-12
50	0x2c929425	4.166017e-12
51	0x2c87cc48	3.8596105e-12
52	0x2c730a58	3.4538119e-12
53	0x2c7d13c3	3.5964432e-12
54	0x2c7ccd9f	3.5925497e-12
55	0x2c8d63d5	4.0185446e-12
56	0x2c9247df	4.157549e-12
57	0x2c90095e	4.093766e-12
58	0x2c6a4a28	3.3294565e-12
59	0x2c8620dd	3.8121576e-12
60	0x2c836a1f	3.7350257e-12
61	0x2c90f79d	4.1202168e-12
62	0x2c7788f2	3.517683e-12
63	0x2c8c59b5	3.988999e-12
64	0x2c116320	2.0660765e-12
65	0x2c43c647	2.7821233e-12
66	0x2c110c07	2.0612416e-12
67	0x2c2c4e74	2.448622e-12
68	0x2c13c05e	2.0996742e-12
69	0x2c287691	2.3940053e-12
70	0x2c16dd68	2.1439187e-12
71	0x2c0e1b20	2.0194471e-12
72	0x2c35e391	2.5847972e-12
73	0x2c08687e	1.9384767e-12
74	0x2c495b6a	2.8614563e-12
75	0x2c11a643	2.0698033e-12
76	0x2bfae965	1.7828348e-12
77	0x2c35df45	2.5845587e-12
78	0x2c0d6c1f	2.0097324e-12
79	0x2c219b8f	2.2965828e-12
80	0x2c344fcb	2.5623832e-12
81	0x2c014f0c	1.8375882e-12
82	0x2c35f3cb	2.585698e-12
83	0x2c2b9c8a	2.4387458e-12
84	0x2c43786c	2.7778014e-12
85	0x2c42b641	2.767023e-12
86	0x2c509169	2.9639297e-12
87	0x2c98c498	4.341926e-12
88	0x2caca658	4.907002e-12
89	0x2c851cee	3.783299e-12
90	0x2cbbafdb	5.3343835e-12
91	0x2d0ec7ff	8.1161735e-12
92	0x2d66a3a0	1.3110318e-11
93	0x2d7460a4	1.3891253e-11
94	0x2d28714f	9.574854e-12
95	0x2d006b32	7.29976e-12
96	0x2d03f62b	7.501148e-12
97	0x2d129f78	8.334548e-12
98	0x2d3adde5	1.0622146e-11
99	0x2d5155a6	1.1899292e-11
100	0x2d611ba5	1.27959076e-11
101	0x2d631e8a	1.2910237e-11
102	0x2d6ac613	1.3345341e-11
103	0x2d231a23	9.271281e-12
104	0x2c9eb184	4.5103383e-12
105	0x2c59b231	3.093647e-12
106	0x2c80a20d	3.65597e-12
107	0x2ca716e2	4.748966e-12
108	0x2c938561	4.1927993e-12
109	0x2ca16d7b	4.58805e-12
110	0x2c8e739e	4.048719e-12
111	0x2c598d8f	3.0916136e-12
112	0x2c0b8384	1.9826094e-12
113	0x2c261b39	2.360513e-12
114	0x2c18c9a6	2.1712437e-12
115	0x2bf4518b	1.7359875e-12
116	0x2c2c073d	2.4446688e-12
117	0x2bf18ac7	1.7162598e-12
118	0x2c126f7f	2.080974e-12
119	0x2c1d9b8e	2.2397392e-12
120	0x2c0edd97	2.030242e-12
121	0x2c0b31c2	1.978071e-12
122	0x2c2ee028	2.485132e-12
123	0x2c1c5e21	2.2221185e-12
124	0x2c212b13	2.2903387e-12
125	0x2c0893d9	1.9408834e-12
126	0x2c0971b6	1.9531993e-12
127	0x2c247f0d	2.337633e-12
128	0x2d818b7f	1.472755e-11
129	0x2d640f88	1.2963748e-11
130	0x2d77da87	1.4088847e-11
131	0x2d71edca	1.3752064e-11
132	0x2d750237	1.3927129e-11
133	0x2d816ec1	1.4714787e-11
134	0x2d7c1f6b	1.4331518e-11
135	0x2d6e51b3	1.35468746e-11
136	0x2d6f6ab0	1.36092665e-11
137	0x2d80e09a	1.4651658e-11
138	0x2d6eb811	1.3569605e-11
139	0x2d799692	1.4187445e-11
140	0x2d829779	1.4846556e-11
141	0x2d7ba586	1.4304452e-11
142	0x2d7eb69b	1.4478775e-11
143	0x2d7f4119	1.4509526e-11
144	0x2d803ece	1.4579806e-11
145	0x2d704e10	1.3659754e-11
146	0x2d60a1bc	1.2768838e-11
147	0x2d5f9db0	1.2711096e-11
148	0x2d54cd56	1.20963985e-11
149	0x2d470400	1.13127285e-11
150	0x2d4bb440	1.1579238e-11
151	0x2d5944fc	1.23503395e-11
152	0x2d77e476	1.4091053e-11
153	0x2dae15a9	1.9791129e-11
154	0x2e0b2140	3.1634473e-11
155	0x2e4517c1	4.4813712e-11
156	0x2e561a4a	4.8681316e-11
157	0x2e1f7ae2	3.6261556e-11
158	0x2e1ffd9d	3.6377668e-11
159	0x2e30661e	4.0108465e-11
160	0x2e5998bf	4.9475753e-11
161	0x2e5bf836	5.001529e-11
162	0x2e40dcda	4.38519e-11
163	0x2e05cdf1	3.042361e-11
164	0x2dbf4c9e	2.1748211e-11
165	0x2d991e83	1.7407636e-11
166	0x2d7d5ff9	1.4402695e-11
167	0x2d5abcd0	1.243379e-11
168	0x2d520906	1.1939122e-11
169	0x2d518e23	1.1911835e-11
170	0x2d6444a1	1.2975538e-11
171	0x2d7741d9	1.4054946e-11
172	0x2d7e8e6d	1.4469853e-11
173	0x2d8976f3	1.562792e-11
174	0x2d88f344	1.5569442e-11
175	0x2d959f88	1.7010185e-11
176	0x2d8d0f22	1.6036564e-11
177	0x2d79d414	1.4201102e-11
178	0x2d83883b	1.4953474e-11
179	0x2d824fde	1.4814757e-11
180	0x2d7e5ceb	1.445886e-11
181	0x2d7a4764	1.4226707e-11
182	0x2d81dbdf	1.4763244e-11
183	0x2d752de5	1.3936828e-11
184	0x2d6ce4b4	1.3465829e-11
185	0x2d6e3b55	1.3541908e-11
186	0x2d6d8079	1.3500417e-11
187	0x2d65988d	1.3051016e-11
188	0x2d705173	1.3660506e-11
189	0x2d6b52d4	1.3376595e-11
190	0x2d681ebd	1.31944984e-11
191	0x2d7a2911	1.4219973e-11
192	0x2c323cf5	2.532916e-12
193	0x2c102466	2.0483836e-12
194	0x2c100806	2.0468085e-12
195	0x2c116f6e	2.0667595e-12
196	0x2c11c27c	2.07137e-12
197	0x2c1704db	2.1461086e-12
198	0x2c13c711	2.100046e-12
199	0x2c1d424b	2.2347842e-12
200	0x2c14c6df	2.114246e-12
201	0x2c102157	2.0482138e-12
202	0x2c04a44c	1.8849531e-12
203	0x2c0c980f	1.9979606e-12
204	0x2c0e0796	2.0183625e-12
205	0x2c23f586	2.3299986e-12
206	0x2c29bdf5	2.4121792e-12
207	0x2c157da4	2.1243918e-12
208	0x2c1b4233	2.2063573e-12
209	0x2c1f7d0a	2.266467e-12
210	0x2c0bf53c	1.988922e-12
211	0x2c06c69d	1.9152798e-12
212	0x2c2c3063	2.446953e-12
213	0x2c60f7d5	3.196989e-12
214	0x2c621640	3.2128883e-12
215	0x2c7b7de0	3.573912e-12
216	0x2c685b37	3.3019817e-12
217	0x2cc800f2	5.684447e-12
218	0x2d79d56a	1.4201399e-11
219	0x2dd15207	2.3796977e-11
220	0x2dc93c31	2.2877785e-11
221	0x2d528b22	1.1968012e-11
222	0x2ce332bf	6.457362e-12
223	0x2cf03e70	6.8281422e-12
224	0x2cf76cb5	7.032231e-12
225	0x2cd3ec55	6.023219e-12
226	0x2cbb5097	5.323807e-12
227	0x2c8e15fc	4.0383235e-12
228	0x2c7b1542	3.5681046e-12
229	0x2c854fb4	3.788936e-12
230	0x2c8d0497	4.0079706e-12
231	0x2c5dd2c4	3.1522987e-12
232	0x2c4e122d	2.928445e-12
233	0x2c3bb206	2.6673121e-12
234	0x2c338421	2.5510776e-12
235	0x2c249c58	2.339259e-12
236	0x2c1ef1cd	2.2587377e-12
237	0x2c122631	2.0769048e-12
238	0x2c13c4e9	2.0999264e-12
239	0x2c0b42fe	1.9790276e-12
240	0x2c045cfd	1.8809947e-12
241	0x2c18cd6e	2.1714536e-12
242	0x2c0c049b	1.9897753e-12
243	0x2c1f6541	2.2651466e-12
244	0x2c0e07c0	2.0183716e-12
245	0x2c214abc	2.2920962e-12
246	0x2c02c5c4	1.8583893e-12
247	0x2c0744f0	1.9222922e-12
248	0x2c071486	1.9196047e-12
249	0x2c15598f	2.1223889e-12
250	0x2c05c5f2	1.9010318e-12
251	0x2c081a84	1.9341482e-12
252	0x2c16c991	2.1428174e-12
253	0x2c1616b9	2.1328896e-12
254	0x2c067766	1.9108825e-12
255	0x2c0b2d2f	1.977817e-12

exp_avg f4 [32]
0	0x379a8a73	1.8422701e-05
1	0x378e5bba	1.6970433e-05
2	0x35c1b0fe	1.4431132e-06
3	0xb3d91eb6	-1.0110436e-07
4	0x3578f4c0	9.274336e-07
5	0x36c0b09c	5.742606e-06
6	0xb675ed3a	-3.664593e-06
7	0xb635e878	-2.7106416e-06
8	0xb701a55a	-7.727498e-06
9	0x3701a1e9	7.726697e-06
10	0x36bd9663	5.6501462e-06
11	0x37276cc2	9.979298e-06
12	0xb6393c28	-2.7602164e-06
13	0x36a5847f	4.9328078e-06
14	0xb79da4d8	-1.879262e-05
15	0xb61d52fb	-2.3443124e-06
16	0x37316784	1.0574124e-05
17	0xb69f1811	-4.741371e-06
18	0xb65ed61b	-3.3205204e-06
19	0xb68e2b08	-4.2369393e-06
20	0xb73e84bb	-1.1355786e-05
21	0xb6c04dad	-5.7310885e-06
22	0x34bded07	3.5376453e-07
23	0xb2044797	-7.699689e-09
24	0xb6844efd	-3.943102e-06
25	0xb65bff64	-3.27822e-06
26	0xb733e253	-1.0721927e-05
27	0xb5093a62	-5.1121435e-07
28	0xb56cb666	-8.8182276e-07
29	0xb6e76d59	-6.897066e-06
30	0x381ea804	3.7826612e-05
31	0x362aab22	2.5431586e-06

exp_avg_sq f4 [32]
0	0x307e9361	9.26141e-10
1	0x2fb55959	3.2987194e-10
2	0x30d42085	1.5434273e-09
3	0x2fa6a7c2	3.0314423e-10
4	0x31d56b09	6.2112844e-09
5	0x30ce485b	1.5009037e-09
6	0x303a3827	6.7746203e-10
7	0x308009c9	9.316007e-10
8	0x3038be5e	6.720934e-10
9	0x31a8eb11	4.9161675e-09
10	0x2fc0c66d	3.5065587e-10
11	0x30e6874a	1.6773154e-09
12	0x2fbf2814	3.4771175e-10
13	0x3141e9c8	2.8218086e-09
14	0x3172d967	3.5339214e-09
15	0x31a0bf76	4.6783795e-09
16	0x30e514c4	1.6667845e-09
17	0x3191003f	4.2200834e-09
18	0x310fc7bc	2.0922775e-09
19	0x307ce554	9.200296e-10
20	0x31304f3a	2.5656406e-09
21	0x30818999	9.425093e-10
22	0x30368334	6.6397665e-10
23	0x314f7242	3.0187413e-09
24	0x304641a9	7.212529e-10
25	0x303d2bab	6.8819855e-10
26	0x3126b66b	2.4259872e-09
27	0x301ea9fe	5.772164e-10
28	0x31807346	3.7383954e-09
29	0x31ceeee2	6.022547e-09
30	0x3147d34e	2.9078424e-09
31	0x31e09bb0	6.5369576e-09

exp_avg f4 [5, 32]
0	0x35b8c673	1.3766825e-06
1	0x37248113	9.805214e-06
2	0x35a91dbe	1.2600137e-06
3	0x33043a7d	3.078684e-08
4	0x36b6ec00	5.4514967e-06
5	0xb70d9af2	-8.440331e-06
6	0xb6a273c6	-4.841454e-06
7	0xb72e2922	-1.0380785e-05
8	0x37686d52	1.3853731e-05
9	0x3723cd77	9.763396e-06
10	0x368bffe9	4.1723147e-06
11	0x3584420f	9.853992e-07
12	0x368566c1	3.975671e-06
13	0x36c5f4c4	5.899552e-06
14	0xb66013ae	-3.3390056e-06
15	0x359e2752	1.1783361e-06
16	0xb68564ea	-3.975457e-06
17	0x367fe48b	3.813099e-06
18	0x3747ef0e	1.1916984e-05
19	0x362ebeb6	2.6039029e-06
20	0x364e5d4c	3.0750698e-06
21	0x35c511f7	1.4682872e-06
22	0x36c6e299	5.9272393e-06
23	0x36495386	2.999995e-06
24	0x36c3d28f	5.835965e-06
25	0x37836773	1.566459e-05
26	0x362ec8c1	2.6044875e-06
27	0x378990d9	1.6399123e-05
28	0x369d0694	4.6797304e-06
29	0x3780f52e	1.537296e-05
30	0xb747e179	-1.1913821e-05
31	0x36c66ba8	5.9133927e-06
32	0x35f84073	1.8496197e-06
33	0x376918d3	1.3893662e-05
34	0xb5c96265	-1.5004304e-06
35	0xb51c5f32	-5.8253056e-07
36	0x3568088d	8.643918e-07
37	0x34b4f00b	3.3702267e-07
38	0xb56ae3e3	-8.750341e-07
39	0xb695fa3e	-4.469678e-06
40	0x36c297f4	5.79934e-06
41	0x3689c8d1	4.1062963e-06
42	0xb6b17569	-5.2886794e-06
43	0x35ebfaee	1.7581895e-06
44	0x3580ecc0	9.605646e-07
45	0xb6fc293c	-7.5149856e-06
46	0xb6de1bcd	-6.619352e-06
47	0x3548ecf0	7.4850595e-07
48	0x3696c3f6	4.493161e-06
49	0xb5a76f25	-1.2474817e-06
50	0x35eae224	1.7500174e-06
51	0xb6e73db3	-6.891519e-06
52	0x3631c429	2.6489236e-06
53	0xb6602784	-3.3401602e-06
54	0xb43ecc78	-1.7769514e-07
55	0x37221fa3	9.663318e-06
56	0xb56bc4ce	-8.783071e-07
57	0x37c11b44	2.302009e-05
58	0x362950d1	2.5230004e-06
59	0x372bcc8b	1.0240018e-05
60	0x372e6df7	1.0396811e-05
61	0xb41cc79c	-1.460125e-07
62	0xb75310bf	-1.2580479e-05
63	0xb5620f4b	-8.4213815e-07
64	0x371f49c3	9.4943125e-06
65	0xb62c873d	-2.5708716e-06
66	0xb6481f75	-2.9820633e-06
67	0xb5fc6a2e	-1.8806365e-06
68	0xb2b78523	-2.1364547e-08
69	0x361d6445	2.3453188e-06
70	0x33ddbbc9	1.03252724e-07
71	0x36483f86	2.9839298e-06
72	0xb52eb956	-6.508975e-07
73	0xb620234e	-2.3862408e-06
74	0x368f2f7c	4.26726e-06
75	0xb525efb5	-6.181611e-07
76	0xb5b0c2e0	-1.3169738e-06
77	0x367741ac	3.6844094e-06
78	0x35224885	6.045523e-07
79	0x35e86c8c	1.7316938e-06
80	0x359aa39b	1.152151e-06
81	0x35427e87	7.2454753e-07
82	0xb671e203	-3.6043355e-06
83	0xb5bd6dc7	-1.4113547e-06
84	0x35b23f63	1.3280481e-06
85	0x34e365b7	4.2356052e-07
86	0xb61b6c7c	-2.3159946e-06
87	0xb53a8c22	-6.949432e-07
88	0xb649b22d	-3.0055046e-06
89	0xb69fd958	-4.7638714e-06
90	0xb69c609c	-4.660409e-06
91	0xb6cd70cd	-6.122608e-06
92	0xb60d5de8	-2.1065298e-06
93	0xb5f67ae7	-1.8364198e-06
94	0x377810b9	1.4785845e-05
95	0x34072bb2	1.2588751e-07
96	0x369ab858	4.611018e-06
97	0x365871c3	3.2252726e-06
98	0x3501bf2f	4.8334454e-07
99	0x3536382c	6.7882024e-07
100	0xb6a8ece1	-5.0343665e-06
101	0xb7af21ea	-2.0877418e-05
102	0xb6d4ca59	-6.3416487e-06
103	0xb780bfc9	-1.5348096e-05
104	0xb706d888	-8.0374375e-06
105	0xb6b5184d	-5.3970493e-06
106	0x36d0f3ed	6.2272798e-06
107	0x364e6c32	3.075937e-06
108	0x35ad4cc3	1.2911845e-06
109	0x3547e866	7.447146e-07
110	0xb671a838	-3.6009715e-06
111	0xb72a8086	-1.0162714e-05
112	0xb79abe83	-1.8446945e-05
113	0xb712b1e5	-8.743697e-06
114	0x36d803b2	6.437732e-06
115	0x34d49f9b	3.9604205e-07
116	0xb66b58c3	-3.5069395e-06
117	0xb616be7e	-2.2462623e-06
118	0x362553cc	2.4635692e-06
119	0xb75ca9cd	-1.3152557e-05
120	0x3639c1ca	2.7679948e-06
121	0x36c6d0b6	5.925157e-06
122	0xb68af64f	-4.1413946e-06
123	0x36b92245	5.517419e-06
124	0xb7d5ec45	-2.55016e-05
125	0x35f4efa8	1.8249166e-06
126	0xb71d39e9	-9.3714125e-06
127	0xb6c790ac	-5.947504e-06
128	0x35da336c	1.6257231e-06
129	0x36cbeccc	6.0774382e-06
130	0xb6aec95e	-5.2090463e-06
131	0xb60d706d	-2.1076078e-06
132	0xb5746655	-9.1045996e-07
133	0x37b2609b	2.1264239e-05
134	0x36c47dcd	5.8559003e-06
135	0x3786e241	1.6079402e-05
136	0x36f8db7f	7.4165287e-06
137	0x3596c8b0	1.1234279e-06
138	0xb7816fc1	-1.5430038e-05
139	0x35efb6a6	1.7860045e-06
140	0xb696e210	-4.4966655e-06
141	0xb6e2f3bf	-6.7637006e-06
142	0xb59f8a0a	-1.1886598e-06
143	0x376d01f3	1.4126755e-05
144	0x375b6869	1.3077727e-05
145	0x371134c0	8.654955e-06
146	0xb79ae30a	-1.8463954e-05
147	0xb6e0c6e7	-6.6988755e-06
148	0x36f78dc1	7.377676e-06
149	0x360d3fc9	2.1047765e-06
150	0xb79e958d	-1.8904708e-05
151	0x37c7de8e	2.3826284e-05
152	0xb7737cf1	-1.4513019e-05
153	0x378510be	1.5862632e-05
154	0x353283d6	6.6502014e-07
155	0xb6102076	-2.1476567e-06
156	0x37f3a184	2.9043069e-05
157	0xb734e079	-1.07811e-05
158	0x345ea977	2.0737012e-07
159	0x35fff19f	1.9069302e-06
